src/calibration/models/test/test_robot_predictor_joint_numAxes3/axis_0.pt (torch, 27362 bytes, 7 tensors)

weight f4 [64, 3]
00000000: 8029 05bd 5ff7 44be 4125 11bd 2378 5d3e
00000010: 66cc 3e3d a4cf 6a3e 1e31 d13e d4ec fabe
00000020: 16ef 3c3d fc03 ec3e 46c2 273e 8e1c ee3e
00000030: 25f4 2f3d 65a8 683e 2580 bbbe 9484 373d
00000040: 8657 f4be 3db2 a13e 9c62 8d3e 9045 ce3e
00000050: bfea 06bf be97 13bf 1559 b43d d0e3 ba3c
00000060: a3ae c93e 68a9 cbbe c91c 0abe 25f1 5bbd
00000070: b9aa 56be 7c78 b03e 8fbb ccbe c2b6 3ebe
00000080: 35c6 eb3e 0051 d9be 0394 febe 5a3d 3d3e
00000090: f739 de3e fcb5 d93e e3a4 f53e dd2b cd3d
000000a0: 2cdc f6be 09ee 06bf 9795 05bf 2f59 02bd
000000b0: fd96 b23e 3672 e93e af74 183e d7a5 ffbe
000000c0: e0e7 5fbe 8fb1 c6be f2fe 8cbe 4b73 4e3e
000000d0: cac5 963e b965 d13e 59eb dfbe cae0 a9be
000000e0: 1a53 8bbe 9ab6 c4be 57cb 03bd f5e9 063d
000000f0: 453f 44be 8c6f ad3e 1bf1 99bc e3ce 2dbe
00000100: 97a9 09bf 11fc e0be 141b 603e 3e5e 803e
00000110: b78e e6bd 0cdf bfbe 29b7 11be 5011 f3be
00000120: 039f fb3e 1581 423e 7d7e 9fbe 2d2c 80be
00000130: 7ad1 a13e 78e1 e4be 5ab2 833e de99 0c3f
00000140: d8c2 8a3d 62c4 5a3e 6eda fe3e 315c 80be
00000150: c1cd e4be 4eca 683e 85bc 38bd 58a0 e63d
00000160: 59dc a93d 31ac 5fbe 6a9a f13d b9d5 dbbd
00000170: 6a7e 413e 9054 023f e595 04bf 546b e9be
00000180: 2c5f 00be 2260 82be 36a0 78be 7683 1e3e
00000190: 3689 383e 4b5b 923e 4a4d 61bd 7ecf 1fbe
000001a0: 907f 85be 4750 3b3e a318 09be ed0e c2be
000001b0: 003c f23e 2667 dd3d 8678 35be 2e8a abbe
000001c0: 2482 b2bc a18d 02bf 9c58 c3be 9186 5a3e
000001d0: 2f92 07be a5ee fbbe ae75 b83e a304 b8bd
000001e0: 8e13 023f ee5f 4c3e d871 abbe 6d4b 3fbd
000001f0: a458 913e 4149 d63e c4ed 003f a4a2 10bf
00000200: b3ad a2be c6ab 74be a813 88bd db03 f7be
00000210: 54ef afbe dd91 57be 20e3 a5be ab56 90bd
00000220: f850 f8bd 61d8 88be 7fc8 fe3e 2d39 4cbe
00000230: 050f b03e 3aa3 303b 0fae 0b3f 6c12 99be
00000240: 218f 34be 561f a43e 647c 4ebe c7fe 1d3d
00000250: 0aaa 0d3e 2e60 0a3f 5ea7 a1be add5 6e3c
00000260: d47c 26bd 3f95 303e e9e0 2dbd 2755 9b3e
00000270: b940 e13e 4c7c e23e 5d93 a83e cb52 c9be
00000280: 5706 6bbe 344c b53e d530 41bd 1c83 2cbe
00000290: a9e2 c63e d6db 56be 57af ecbe 9137 0fbf
000002a0: e7a8 8bbe 8848 493d c98d dabe 35da 0339
000002b0: 405e 833e a57f a3bd 2613 e9be b23c ee3e
000002c0: fb86 a7be f277 013c 3d3b 22be 8bc8 843e
000002d0: c2f3 0cbf 5d0d 813b 25b0 663e 0bab 0ebf
000002e0: 9d5b de3e d95f 86bd 8f66 d43e 1524 06bf
000002f0: f958 3cbd c851 e0be f929 6cbe c5e6 5abd
-0.03251028 -0.1923499 -0.03543592 0.2162786 0.04658165 0.22930771 0.40857786 -0.4900881
0.046126448 0.4609679 0.16382703 0.4650616 0.042957444 0.22720487 -0.36621204 0.04480417
-0.47723025 0.31581298 0.27614295 0.40287447 -0.52701944 -0.57653415 0.088060535 0.022813708
0.3939105 -0.39777684 -0.13487543 -0.05369677 -0.20963563 0.34466922 -0.39986846 -0.18624404
0.46049657 -0.4244461 -0.497223 0.18480435 0.434036 0.42521656 0.4797736 0.10018132
-0.48214853 -0.5270696 -0.5218138 -0.031823333 0.3488082 0.4559495 0.14888261 -0.49931213
-0.21865797 -0.3880734 -0.27538258 0.20161168 0.29447776 0.4089792 -0.43734244 -0.33179313
-0.2721184 -0.38420564 -0.03217634 0.032937963 -0.1916476 0.33874166 -0.018791726 -0.16973452
-0.537744 -0.4394231 0.2188533 0.250719 -0.112576894 -0.3747486 -0.14230026 -0.47474146
0.49144754 0.18994553 -0.3115119 -0.25033703 0.3160513 -0.4470327 0.2572201 0.5492228
0.06775445 0.21363977 0.49776024 -0.25070336 -0.44688228 0.22733423 -0.04510166 0.11261052
0.08293981 -0.2184303 0.1179703 -0.10734124 0.1889588 0.5091028 -0.5179122 -0.45589697
-0.12536305 -0.2546397 -0.24279866 0.15479836 0.18021092 0.28585276 -0.05500535 -0.15606496
-0.26073885 0.18292342 -0.13388304 -0.37902012 0.473114 0.1081069 -0.17721757 -0.3350386
-0.021790572 -0.5099736 -0.3815354 0.21340396 -0.13239358 -0.4920551 0.36027282 -0.089852594
0.5081109 0.1995847 -0.33485293 -0.04670279 0.2838794 0.41852763 0.503628 -0.5649817
-0.31773147 -0.23893651 -0.06644374 -0.4824513 -0.3436228 -0.21051736 -0.32399845 -0.070477806
-0.121248186 -0.26727584 0.4976234 -0.19943686 0.3438646 0.002695276 0.5456247 -0.29896867
-0.17632724 0.32055157 -0.20164639 0.038573053 0.13834396 0.5405301 -0.31573004 0.014577311
-0.04064639 0.17244433 -0.04245082 0.30338404 0.43994692 0.44235456 0.3292493 -0.3932098
-0.22951637 0.354097 -0.04716571 -0.1684689 0.38844803 -0.20982298 -0.46227524 -0.5594416
-0.272773 0.049141437 -0.42686298 0.00012574422 0.25657845 -0.07983331 -0.45522422 0.46530682
-0.3272017 0.007902132 -0.1584291 0.25934252 -0.55059445 0.0039383606 0.22528131 -0.5572974
0.4342927 -0.0656125 0.41484496 -0.52398807 -0.04598329 -0.43812394 -0.23062886 -0.053442735

bias f4 [64]
00000000: d2c2 ccbe 234b 6f3e 8ee0 b2be 7ab8 1bbe
00000010: fd14 a9be 74bd 97be 7152 fab9 4deb 92be
00000020: b436 983e 373b 123f 1a1e 883e 9b22 cbbe
00000030: f98d b9be adda eb3d 2743 fb3e 9e43 d8be
00000040: c4e7 5dbe 2725 78be afc2 d43e 63bd d33e
00000050: f524 de3d ce6c 99be 56ec 05bf 7d68 963e
00000060: 46ae 713e 79f0 babe bf5a 00bf 08ed 11bf
00000070: 889c 113f c416 083f 2abb 45be 08c5 253e
00000080: d9f8 99be 2575 24be e240 f3be dbcc c53e
00000090: bbdc 753e 9fbd b8be 08f1 993c 8259 bebe
000000a0: 264c 93bd 8f94 ac3e 0a99 903e c8ca c43e
000000b0: 09cf 17be 8b0c f7be 7d89 acbe 6faf 4a3e
000000c0: a9bd f1be 2a15 32bd 7c07 0abe cde9 3f3e
000000d0: 5b69 843a fa89 efbe 0543 f23e 5faf a6be
000000e0: eac0 033d db33 d1be 53f7 cdbe 4f0c 8fbe
000000f0: adda 593c 7b1b e6be 7aae fd3e 2778 0a3b
-0.39992386 0.23368506 -0.34936947 -0.15207091 -0.33023825 -0.2963673 -0.0004774514 -0.28695145
0.29729235 0.57121605 0.26585466 -0.3967484 -0.3624113 0.115163185 0.4907467 -0.42239088
-0.21670443 -0.24232922 0.41554782 0.41355428 0.10846893 -0.29965824 -0.52313745 0.29376593
0.23601636 -0.3651159 -0.5013847 -0.57002306 0.5687947 0.5315974 -0.19309679 0.16188443
-0.30072668 -0.16060312 -0.4751044 0.38632855 0.24009983 -0.3608217 0.01879169 -0.37177664
-0.071922585 0.3370709 0.2824176 0.3843596 -0.14825071 -0.48251757 -0.33698645 0.19793485
-0.47215012 -0.043477215 -0.13479418 0.18741532 0.0010102199 -0.46784955 0.47316757 -0.32555673
0.0321664 -0.40859875 -0.40227756 -0.27939078 0.013296765 -0.4494284 0.49547178 0.0021128745

weight f4 [64, 64]
00000000: deac b53d f562 1abc 9029 70bc a016 073d
00000010: 380d babd 9c73 fc3d e9f9 5c3d 4073 d7bd
00000020: 06fc 813d 60f0 b3bc fe1c 973d 8cb7 b93d
00000030: 59a0 d83d 9887 1abd 7438 9f3d 8b3f 0fbc
00000040: 702b 75bd b9ac e53b e87c 933c a8b0 e8bc
00000050: c6f4 dabd 5012 d1bc 47ee fdbd a84d 563d
00000060: eb4d a03d e286 adbc 77ba 03bd 60e1 223b
00000070: 80f2 bf3c 0b69 da3d cc4a 443d 2a8e 943d
00000080: 4c04 56bd 0fa4 3a3d c4cd bb3d 64ab b33d
00000090: 05c1 8dbb b85b 53bd 3feb f3bc 41e7 8dbd
000000a0: 3159 fe3a 9cef 493d 1cae 56bd 0461 6d3d
000000b0: a0d5 e83d cc28 9a3d 06e4 89bd ad14 d9bd
000000c0: e840 153d 763b 803c b10f b63c 80c4 8fba
000000d0: 155f ab3d 10d7 433c 8405 c7bd ce59 b53d
000000e0: 4744 a73d d1fe f33d a682 a53d a054 c63b
000000f0: 5743 adbd 7dae 783d ec31 9e3d d4f2 7dbd
00000100: 5041 efbd 0826 84bc 1096 973c 202f 2dbd
00000110: 30f2 503d 74db 533d 20c3 ab3c 00ba 713b
00000120: 0cfd 10bd 901a 40bd 0204 d0bd 683f 87bc
00000130: c0ce 1d3c 92fa 9f3d 38cf b23d b067 e03d
00000140: ac5b f7bd c8e4 acbd 609a a23c 50dd 813d
00000150: 2c03 d1bd 84dc 5abd 8069 acbb 5ed6 b3bd
00000160: 947d d63d 9003 013c 9264 d33d 4a73 97bd
00000170: 086c 97bc 6e1b b2bd 8834 ffbd 909a 6c3c
00000180: 60b6 3d3d 107f f43c 9024 1e3c 04f4 01bd
00000190: e852 a1bd ec4b f03d e08a babc d86b d73d
000001a0: 24b3 a83d de87 bebd f417 a13d 307c 02bc
000001b0: b4f4 0dbd 52e4 fd3d c856 203d 508a ae3c
000001c0: 9027 f7bd a0b7 9abd 20e1 6d3d 38a1 f9bc
000001d0: 30d0 cbbc e45f bebd 50c9 77bd dc14 1bbd
000001e0: 6e00 c4bd 5c6d 3fbd 2c2a 20bd 0229 a7bd
000001f0: 7002 6c3d 7818 6a3d e824 ebbc 4052 05bb
00000200: 58b1 cc3c ef97 ba3b a4ed 98bd 7fc9 ce3d
00000210: f378 213d 80fc e33a c4b7 ed3c 362d 493a
00000220: 2cb8 de3d a800 9c3c 1e07 afbd 9627 a23d
00000230: 8b74 953c 1ef2 9bbd 54e9 fc3d 1778 ac3d
00000240: 2012 86bc 8ffa 91bd b8d6 d93d a05c c23b
00000250: 9c45 babd bc7c 34bd abb8 183c f898 08bd
00000260: e1d6 b63d be90 53bd 2b30 df3d 1de0 153c
00000270: e555 d93d 8538 bc3d f8da abbd 78c5 403d
00000280: c0f8 a73c f2c9 2abd a81c 88bc c027 c1bb
00000290: dc66 a63d 88f9 debd 27df e73c cd63 02be
000002a0: 4657 383d d117 eabc 7080 b5bc a0b6 043c
000002b0: 2426 98bd 7817 6b3d 40cf 48bb a029 94bd
000002c0: ba5f cebd 6a9f 69bc e3a0 febd 503c 003c
000002d0: 492b a7bd f4fa 543d 105d e03c 78c2 b8bd
000002e0: 0b0b 9c3c f260 de3d ce07 cfbd 0070 6d3d
000002f0: b228 963d d5b9 7fbc 0aa1 94bd d234 e4bd
00000300: 90a4 91bc cc58 7d3d 2eb1 a03d 76af 543c
00000310: 46a2 dc3c 0ee9 d0bd e4b7 1839 08e5 ae3d
00000320: 5c6d debd 0edb f1bd 1e00 b33d 2079 cdbd
00000330: 6a96 0bbd 2aca d9bd 7030 aabc 0d2a debb
00000340: 10a7 afbc 3fe5 19bd 84bf 733d b0ae 073d
00000350: f55c 15bd 24a6 c2bd 7cf1 bebd d4c6 c23d
00000360: 9d29 fabb bf79 16bd 2daa b23d f0c3 413c
00000370: 6216 c43d 2a0a d03c 3ed7 9bbd ca16 f33d
00000380: 8a71 ee3d 4b16 933d d0b7 eebc 08ba bfbd
00000390: 2480 0abd 74ae 103d 9727 e7bd 5715 04be
000003a0: 8dff fabd afa1 733d e4cf d5bd c4b4 3abd
000003b0: 70f4 1cbd 4042 e43b 4ca5 1abd 6f2c fdbc
000003c0: a28b f03d 7e65 debd 97cf e1bc 304b 303c
000003d0: 1e3a ad3d a6d6 ccbd 38be 3dbd fed2 db3d
000003e0: 9069 a13b 626e c43d e3f9 ed3d d03a 81bc
000003f0: f568 f5bd 16ea b23d e05d e33c 004c d03c
0.088708624 -0.009423007 -0.014658347 0.03298056 -0.090845525 0.12326738 0.05394927 -0.10520029
0.06346898 -0.021965206 0.07378577 0.09068212 0.10577459 -0.03772697 0.077744395 -0.008743177
-0.05985588 0.0070091155 0.018003896 -0.028404549 -0.10691218 -0.025521427 -0.123989634 0.052320153
0.07827362 -0.021182481 -0.03216025 0.0024853572 0.023431063 0.106645666 0.047922894 0.07253678
-0.05225019 0.045566615 0.09170106 0.087729245 -0.0043259882 -0.05160114 -0.02977526 -0.06928874
0.0019405243 0.049300775 -0.052412137 0.05795385 0.11368871 0.07527313 -0.06732945 -0.10599647
0.036438853 0.015653353 0.02222428 -0.0010968596 0.08367745 0.01195313 -0.09717849 0.088550195
0.0816732 0.11913837 0.0808156 0.0060525686 -0.0846011 0.06071328 0.077243656 -0.061999157
-0.11682379 -0.016131416 0.018504173 -0.04228127 0.051012218 0.05172296 0.020967066 0.0036884546
-0.035397574 -0.046900332 -0.101570144 -0.016509727 0.009631813 0.07811464 0.0873093 0.10957277
-0.12078032 -0.08442074 0.019849002 0.0634104 -0.10205683 -0.053432956 -0.0052616 -0.08781122
0.10473171 0.0078743845 0.10321917 -0.073950365 -0.01848413 -0.08696638 -0.124611914 0.014441147
0.046316504 0.029845744 0.009652272 -0.031726852 -0.07877141 0.11733231 -0.022771299 0.105186164
0.08237293 -0.09303258 0.07865897 -0.007964179 -0.034657195 0.12397064 0.03914526 0.021306187
-0.12068093 -0.07554555 0.058076024 -0.030472383 -0.024879545 -0.092956334 -0.06049472 -0.03786169
-0.095703945 -0.046735153 -0.03910272 -0.081621185 0.057619512 0.05715224 -0.028704122 -0.0020343214
0.024986908 0.0056943814 -0.07467201 0.10097026 0.039421987 0.0017393976 0.02901829 0.00076742785
0.10874972 0.019043282 -0.08546279 0.07917707 0.018244049 -0.076145396 0.12349191 0.08421343
-0.016366065 -0.071278684 0.106366575 0.005931452 -0.09095308 -0.04406427 0.009321372 -0.033349007
0.08927704 -0.05165171 0.10897859 0.009147671 0.10612086 0.09190468 -0.08391374 0.04706332
0.020504355 -0.041696496 -0.016615227 -0.005894631 0.081250876 -0.10887438 0.02830465 -0.12733383
0.045005105 -0.02857581 -0.02215597 0.008100182 -0.0742915 0.05739543 -0.0030641109 -0.07234502
-0.10076852 -0.014259199 -0.124330305 0.00782688 -0.08162553 0.05199714 0.027388126 -0.09021467
0.019048234 0.108583346 -0.101089105 0.05796814 0.07331981 -0.015608271 -0.07257278 -0.11142887
-0.017778665 0.06185226 0.07846294 0.012981286 0.026932847 -0.10200702 0.00014564354 0.08539778
-0.108607024 -0.118093595 0.08740257 -0.100328684 -0.034078993 -0.10634263 -0.02077505 -0.006779915
-0.021441966 -0.03757214 0.059508815 0.03312558 -0.036465604 -0.09504345 -0.09323403 0.0951058
-0.007634355 -0.0367372 0.08723865 0.0118265 0.09574582 0.025395472 -0.076094136 0.11869581
0.116427496 0.071819864 -0.029140383 -0.093616545 -0.03381361 0.03532262 -0.11286848 -0.12898766
-0.12255774 0.059480365 -0.104400426 -0.045582548 -0.03831905 0.0069659054 -0.037755296 -0.030904977
0.11745383 -0.10859202 -0.027564807 0.010760114 0.084583506 -0.100018784 -0.046323985 0.10733603
0.004925914 0.09591366 0.11619928 -0.015775114 -0.119829096 0.087360546 0.027754724 0.025426865

bias f4 [64]
00000000: 8fbc c23d e0f7 e23c 7571 63bc 460d a73c
00000010: dc55 e93d 25d7 26bd 83e7 99bd 7aaf 55bd
00000020: 58d1 e53c fded ce3d 7e24 e13d 2746 923d
00000030: 9482 633d 2c02 bcbd 98d3 8cbd 8cdb 6a3d
00000040: 4047 9c3c 0be1 673b 83aa dabd 6f8a ab3c
00000050: a806 d9bc aebe bdbd 886e c63d 8438 fb3d
00000060: 151c f43d 72bd 28bd e893 d6bd 3419 863d
00000070: 785f b13c 7136 a3bc 4d4a a6bd 83ea 423c
00000080: 2e01 e0bd e7c5 6b3c bf78 063e 98e7 fbbd
00000090: e247 ecbd 505b 25bc cc9b b6bd 4490 793d
000000a0: 8911 993c fdb1 a83b 2272 643d fcc3 a33d
000000b0: be6d 693d 1825 28bc 0071 95bb 6c33 1dbd
000000c0: 8434 6c3d ae87 fa3d 4bf2 52bd 49c8 9bbd
000000d0: 9c17 323d e00c 60bc d621 dc3d af02 90bc
000000e0: 1d0f cabd 6023 d8bc 4490 a1bd b0f2 c2bd
000000f0: 40b9 d73b 07ce f1bd 5843 de3d 0cb4 0fbd
0.09508621 0.027706087 -0.013882031 0.020392071 0.113933295 -0.04073252 -0.075148605 -0.0521693
0.028053924 0.101039864 0.109932885 0.07142287 0.05554445 -0.09180102 -0.06876296 0.057338282
0.019076943 0.0035381939 -0.10677054 0.020940034 -0.026492432 -0.09264885 0.09689051 0.12266639
0.11919419 -0.041196294 -0.1047743 0.06547776 0.021651968 -0.01992342 -0.081196405 0.011896732
-0.10937725 0.014390445 0.13131998 -0.123000324 -0.11537148 -0.010092571 -0.08916435 0.060928598
0.01868512 0.005148171 0.055772908 0.079963654 0.056989424 -0.01026275 -0.00456059 -0.038379118
0.05766727 0.1223291 -0.0515006 -0.07606561 0.043479547 -0.013674945 0.10748641 -0.017579405
-0.09866164 -0.026384056 -0.078888446 -0.09518945 0.006583363 -0.11806875 0.108526886 -0.035083815

weight f4 [1, 64]
00000000: 9a14 303d 5425 703d b440 e0bd f69e fdbd
00000010: 698d 8fbd 609f dd3d 5004 393c bd77 2d3d
00000020: e03d 323c a9bc 77bc 583a e7bd 1cfd 00be
00000030: 20ea 8a3b 6a80 8cbd 68c7 6fbd a23d e6bd
00000040: b028 e4bd bab4 57bd f605 833d 0e31 e83c
00000050: e000 1bbd 244c f7bd c9ff cfbd 6ab4 ccbd
00000060: 0a02 c13d 89d8 e3bd 38c1 aabd 8a91 f33d
00000070: 246d 8bbd 5c57 c03d 0c00 1cbd 982d c13d
00000080: 62db eebd 72a4 903c 076c a1bd 9a39 b2bd
00000090: 6092 9c3c 8c12 6f3d 85b1 683d 006e 263c
000000a0: 8765 90bd 749e 32bd c5fb eebd 571f eebd
000000b0: 85cf 57bc 4e31 693c 38aa 58bd 6c0a 1fbc
000000c0: bc95 c7bd 90e8 6c3c 2e3a 8b3d 1ef2 0b3d
000000d0: e663 77bd 089e b33d 4084 ea3c 4a9e 8a3c
000000e0: 884f c73c 409e 1abc edbe c4bd 6435 233d
000000f0: 70d5 33bc d86c e5bd 6a67 2a3d 902f 88bc
0.042988397 0.05862935 -0.10949841 -0.12383835 -0.07009394 0.10821414 0.011292532 0.04235052
0.01087901 -0.015120664 -0.11290425 -0.12596554 0.0042393357 -0.068604305 -0.058539778 -0.11242224
-0.11140573 -0.05266259 0.06397621 0.028343704 -0.03784263 -0.120750695 -0.10156209 -0.09995349
0.09424217 -0.11125285 -0.08337635 0.11892994 -0.06807926 0.093916625 -0.038085982 0.094325244
-0.11662938 0.017656539 -0.07881933 -0.08702393 0.019112766 0.058367297 0.05680992 0.010158062
-0.07050615 -0.043608144 -0.11669115 -0.11627071 -0.013172035 0.014232947 -0.05289671 -0.009707075
-0.097453564 0.014459744 0.06798206 0.034166448 -0.060398005 0.087703764 0.028627515 0.016921181
0.024329916 -0.009437144 -0.09606729 0.03984584 -0.01097618 -0.11202401 0.04160253 -0.016624242

weight f4 [4, 64]
00000000: bc7d c8bd 941a 0cbd e098 cf3d b758 bb3d
00000010: 8b35 d4bd ec49 9a3c d92a de3d 7105 a7bd
00000020: 0057 803b 0a77 953d 2850 acbc 67e0 bb3c
00000030: 0af1 d4bd fc85 00bd 8030 443d 9a66 debd
00000040: f80a b03d eadf 3c3b 10ee d43c 74ba e6bd
00000050: 90e4 f13d c8cd 24bd 0303 8f3d 70b9 983c
00000060: 4e23 f0bd 0778 203b 1025 dd3d a056 c53d
00000070: 14fb 013d be4d a7bd 7620 523d b9b3 b9bd
00000080: 66a6 43bd d701 09bd bf9c 38bd 6045 273c
00000090: 90ec 1c3d 1e01 be3d 9395 de3d f09f 3d3c
000000a0: 878a 2ebd cccb 1b3d 130f a5bc 63da 29bd
000000b0: f55e 2a3d 4389 363b 6cae aa3d b198 563d
000000c0: 741a 273d f0f8 643d 9adf 883d 9989 a43d
000000d0: 3210 103b 9872 cdbc b843 c2bc 2d33 ff3c
000000e0: 580f 733d 0e23 bcbd 2397 5c3c 326f cebd
000000f0: 1a96 89bd 7efe 773d 6aad 493d 3ee7 8b3d
00000100: 0d55 d8bd 1ce8 8fbd 7eb6 473d 9433 92bb
00000110: 097b a43d 61e7 f83c c5c2 33bd 2e73 a73d
00000120: bad4 bebd 1fb7 ac3d e626 d5bd 598e 35bd
00000130: 9289 cdbd a8d8 9dbc 3859 c6bd 60e4 bebd
00000140: 903e b03c b322 b6bd 3c61 99bd e743 adbd
00000150: 98ec 41bd 4d0c 52bd 8f12 dcbd 1e00 f2bd
00000160: 78bb 92bd 8a0d 903d 846c 3cbd cc3b c03d
00000170: 10cd 9e3c 6244 933d 3fac 74bd 759b 93bc
00000180: 4764 ee3b ddd8 c13d 04ec 9abd a85f cf3c
00000190: 22bb ca3d 8009 dfbd 97e1 debd 40dc 65bc
000001a0: a2bc 46bd ff25 42bd 3e29 55bd 9ad1 c6bd
000001b0: fe16 063d 23d7 ad3d 0046 0dbb 62e1 da3d
000001c0: 2c87 2f3d a41e 7a3d 4453 8bbd 5b7f 7fbc
000001d0: 232d 53bd b6ec cebd d095 e1bc 029a ea39
000001e0: 4a56 c43d 1231 99bd 2152 d43d dc6f 54bd
000001f0: 44d3 7a3d cc0f edbd 834d 5dba b4d3 7fbd
00000200: 904e e63c 7422 1fbd e437 0d3d f0e4 ae3d
00000210: 9881 52bd d4a1 f9bd a2b4 c6bd e049 34bc
00000220: 86de c63d 12f6 f4bd 082a 813d 469f e93d
00000230: 400d a2bc c83b 49bd b079 553c 105e 5b3d
00000240: c0ca 6abd 6235 943d e8ea c43d f64f c33d
00000250: e822 743d 60c1 8fbc 1490 e43d 1273 ce3d
00000260: deb2 ca3d fc32 b8bd d0cc d83d 98fd b5bc
00000270: 2e82 a6bd 10a2 0bbd c2fd 813d 787b 53bd
00000280: c02a 06bc 0072 86b9 7022 adbc 50ca a53d
00000290: e06e 253c 84d3 ab3d 380a 1bbd 20ca 94bc
000002a0: 1ced 313d 86e6 f53d 58c2 58bd f65d d6bd
000002b0: 988b 7fbd 06e1 b93d 14c2 983d 1ccf 343d
000002c0: 40ca 473b d8fe 2c3d 607a ac3b 564c c53d
000002d0: 72b2 a63d 481d 6a3d 0049 02bb e43e 393d
000002e0: 406f b8bb 44b9 af3d 6440 4b3d 3a42 b0bd
000002f0: 9cbb 6b3d 9823 82bc 809f bdba 8e38 8ebd
00000300: 409b 173d d898 153d fcc4 7a3d 00df 563b
00000310: 88c0 90bd 920a dfbd 6a22 c6bd b211 b8bd
00000320: 3c37 05bd dad1 ca3d 7ea5 a43d 662d dc3d
00000330: a8a5 ed3c 88c9 0ebd 8082 563c 7a91 cfbd
00000340: c89b db3d 34da 0fbd de9e ae3d 50fd a13c
00000350: 50a8 db3c a87b 943d 500d 02bd fa6f 923d
00000360: 0450 1cbd 9cce 4dbd 7803 843c 14fa 833d
00000370: 9e00 f33d 50b8 4c3d 8242 c13d b083 413c
00000380: ac77 d13d 0094 aabb e269 a8bd 50fc 523d
00000390: 2a13 e3bd 0422 acbd dcaf 1cbd d86b 85bd
000003a0: 1c96 383d 06a8 f1bd 06a9 f13d 80b0 3dbb
000003b0: a648 b93d 4c11 b03d 1ee4 f63d d037 2fbd
000003c0: 40ca 5cbc 2c3e 04bd c8b6 85bd d86d e93c
000003d0: 4c12 89bd 0c9a 25bd 5835 ccbd 30cd e13d
000003e0: 6858 923c 5472 6ebd d074 163c 741d febd
000003f0: c46e a0bd bc81 59bd ec87 56bd c069 39bb
-0.09789607 -0.034205034 0.101365805 0.091477804 -0.10361775 0.018834077 0.10848016 -0.08155335
0.003916621 0.072980955 -0.021034315 0.022934152 -0.10397537 -0.031377777 0.047897816 -0.108594134
0.08595842 0.0028819987 0.025992423 -0.11266032 0.11811173 -0.04023531 0.06982996 0.018643111
-0.11725484 0.0024485604 0.10798085 0.09635663 0.031733587 -0.08169125 0.05130049 -0.090674825
-0.04776611 -0.03344902 -0.04507136 0.010209411 0.03831154 0.09277557 0.10868373 0.011573777
-0.04261258 0.038036153 -0.02014879 -0.041468035 0.041594464 0.002785281 0.083340496 0.05239171
0.040796712 0.055901468 0.066832736 0.08034057 0.002198231 -0.025079057 -0.023713931 0.031152332
0.059340805 -0.09186374 0.013463768 -0.100798026 -0.06718083 0.060545437 0.049237646 0.06831215
-0.10563097 -0.07026693 0.048758022 -0.004461715 0.080312796 0.030383768 -0.04388692 0.08176266
-0.09317918 0.08433365 -0.1040781 -0.044325206 -0.10036005 -0.019268349 -0.09684986 -0.09320903
0.021514207 -0.08893337 -0.07489249 -0.08460217 -0.047344774 -0.051281262 -0.10745727 -0.118164286
-0.07164663 0.07033832 -0.046001926 0.09386405 0.01938489 0.07190777 -0.05973458 -0.018018464
0.0072751376 0.094651915 -0.07564548 0.025314167 0.09898974 -0.10890484 -0.108828716 -0.0140295625
-0.048519738 -0.047399517 -0.052041285 -0.09707947 0.03273677 0.084883 -0.0021556616 0.106875196
0.04285352 0.061064377 -0.06802991 -0.015594329 -0.051556718 -0.10103743 -0.027537256 0.00044746703
0.09586771 -0.074800625 0.10367227 -0.05186449 0.061236635 -0.11575279 -0.0008442031 -0.062457755
0.028113633 -0.038851216 0.03447713 0.0853976 -0.05139312 -0.121890694 -0.09702422 -0.011003941
0.09710412 -0.11960997 0.06306845 0.11407332 -0.019781709 -0.049129277 0.013029501 0.053556502
-0.057322264 0.072367445 0.09615117 0.09536736 0.0596036 -0.017548263 0.11160293 0.10080542
0.098973975 -0.089940995 0.1058594 -0.02221565 -0.081302986 -0.0340901 0.063472286 -0.05163142
-0.008188903 -0.00025643408 -0.021134585 0.08095229 0.010097235 0.08389953 -0.037851542 -0.018162787
0.043439016 0.120068595 -0.052919716 -0.104671404 -0.062388986 0.09076123 0.074588925 0.044142827
0.003048554 0.042235225 0.0052636117 0.096337005 0.081395045 0.05715683 -0.0019879937 0.045225993
-0.0056284964 0.085802585 0.049621955 -0.08606382 0.057551965 -0.015886113 -0.001446709 -0.06944381
0.037013292 0.036522716 0.061223015 0.0032786727 -0.070679724 -0.10890688 -0.09674533 -0.0898775
-0.03252338 0.09903307 0.08039378 0.107508466 0.029009655 -0.034860164 0.013092637 -0.10135169
0.10723072 -0.035120204 0.08526395 0.01977411 0.026813656 0.07250148 -0.031750977 0.07150264
-0.038162246 -0.050245866 0.016114935 0.06444183 0.11865352 0.04998046 0.094365135 0.011811182
0.10227904 -0.0052056313 -0.082233205 0.051510155 -0.1108764 -0.084049255 -0.03825365 -0.0651471
0.04506503 -0.11799626 0.11799817 -0.0028944314 0.0904706 0.08597049 0.12055229 -0.042777836
-0.0134759545 -0.032285854 -0.065290034 0.02849476 -0.06692943 -0.040430114 -0.09971112 0.110254645
0.017864421 -0.0582145 0.009183124 -0.124079615 -0.07833627 -0.05310224 -0.05237572 -0.0028291792

bias f4 [4]
00000000: f1ac 25bc 4287 e23d 00a5 233c 2aa9 a13d
-0.010112033 0.11060955 0.0099880695 0.078935936
