src/calibration/models/test/test_robot_predictor_joint_numAxes3/axis_2.pt (torch, 27362 bytes, 7 tensors)

weight f4 [64, 3]
0	0x3ea4fcf1	0.3222423
1	0x3ea65cf7	0.32492802
2	0xbe6b6316	-0.22987017
3	0xbe28ddea	-0.16490903
4	0xbd38d589	-0.045125518
5	0x3d92319d	0.07138369
6	0xbedbf1d9	-0.42957953
7	0xbe20d8b1	-0.15707661
8	0xbe9895ae	-0.29801697
9	0xbe2efba6	-0.17088184
10	0x3e8ce20f	0.2751622
11	0xb94f0929	-0.00019744471
12	0xbe1b22d7	-0.15150009
13	0x3e4bac50	0.19889951
14	0x3cb1b7af	0.021694032
15	0xbdc1faf1	-0.094716914
16	0x3ef284bf	0.47366902
17	0xbda9667d	-0.08271501
18	0x3d826d08	0.06368452
19	0x3ddce2b9	0.107854314
20	0xbdde31fb	-0.10849377
21	0xbecc1235	-0.3985764
22	0x3ebd7d94	0.3700987
23	0x3f07fd5f	0.5312099
24	0x3f10b1c6	0.5652126
25	0x3ea0d5fe	0.31413263
26	0xbeac7a15	-0.3368689
27	0xbe529a03	-0.20566563
28	0xbea4961f	-0.32145783
29	0x3ef91a60	0.48652935
30	0x3c2894a5	0.010289346
31	0x3e1e1d4f	0.15440868
32	0xbf0ed0cc	-0.5578735
33	0x3e9f697f	0.31135175
34	0x3dd0b452	0.10190643
35	0xbe80a88f	-0.251286
36	0x3e14faa4	0.14548737
37	0xbe886c75	-0.26645246
38	0xbec02f9b	-0.3753632
39	0x3ee6585b	0.44989285
40	0xbe06f08b	-0.13177697
41	0xbef4b1f6	-0.47792023
42	0xbe849276	-0.2589299
43	0x3c8d2e77	0.01723407
44	0xbeb169d3	-0.3465105
45	0xbe2d7d31	-0.16942288
46	0x3d05237c	0.032504544
47	0xbe19eedd	-0.15032525
48	0x3e444ea9	0.19170631
49	0xbd746ac4	-0.059672132
50	0xbd0be9cd	-0.034158517
51	0xbe3e8de9	-0.18608822
52	0xbf121ccb	-0.57075185
53	0x3ec78fb6	0.3897683
54	0xbef8f138	-0.48621535
55	0x3efd1654	0.49431098
56	0x3ef0b1cd	0.4701065
57	0xbef7d9b4	-0.48408282
58	0x3eeeff59	0.4667919
59	0x3eae32b4	0.34023058
60	0x3eccabf4	0.3997494
61	0x3ee872e1	0.45400146
62	0xbe275984	-0.16342741
63	0x3ec3ae56	0.38218945
64	0x3e60fadc	0.21970695
65	0x3e675735	0.2259186
66	0xbef09726	-0.46990317
67	0x3f059483	0.52179736
68	0xbeb706cb	-0.3574737
69	0x3f0544b1	0.5205794
70	0xbf086fd2	-0.53295624
71	0x3dfc1cb9	0.12310166
72	0xbdce444f	-0.100716226
73	0x3ddcbb6f	0.107779376
74	0x3dacc721	0.08436418
75	0x3e7a01fc	0.2441482
76	0xbecfa4a6	-0.40555304
77	0x3e756e37	0.23967825
78	0x3efca130	0.49341726
79	0xbef559e6	-0.4792015
80	0xbe28ca92	-0.16483524
81	0xbd9302c2	-0.071782604
82	0xbea6258a	-0.32450515
83	0x3da6e4a4	0.081490785
84	0x3e686047	0.22692977
85	0x3ef99cf8	0.4875257
86	0x3f0611b8	0.52370787
87	0xbe41c406	-0.18922433
88	0xbf0b81fc	-0.54495215
89	0x3ecfd7ae	0.40594238
90	0xbd389b4b	-0.045069974
91	0xbde7c575	-0.11316959
92	0x3e2b6855	0.16739018
93	0x3ca37c1f	0.019956646
94	0xbca780ab	-0.020447096
95	0xbf029cb1	-0.5102034
96	0xbeff4af1	-0.49861863
97	0xbe7f4371	-0.2492807
98	0xbe13e18b	-0.14441507
99	0xbf0cae5b	-0.54953545
100	0x3f0de98b	0.55434483
101	0xbe80f521	-0.2518702
102	0x3ebf2d45	0.37339225
103	0xbd0f8cfe	-0.03504657
104	0xbf107429	-0.56427246
105	0xbda6ac06	-0.081382796
106	0x3db85aa4	0.09001663
107	0x3f03e483	0.51520556
108	0xbdc31e25	-0.09527234
109	0x3eac2743	0.33623704
110	0x3e3d47d9	0.18484439
111	0xbdda900f	-0.10672008
112	0x3c9eeedd	0.019401008
113	0xbee9df0b	-0.4567798
114	0xbe1df9cc	-0.15427321
115	0xbe1e83c9	-0.1547996
116	0x3f0b4380	0.5439987
117	0x3dec617d	0.11542032
118	0xbd499310	-0.049212515
119	0x3ee946b1	0.45561746
120	0x3dc9c6ce	0.09852372
121	0x3ef732db	0.48280987
122	0x3e1c6f4c	0.15276831
123	0x3eb4101d	0.35168543
124	0x3ef14488	0.47122598
125	0xbed3bb19	-0.41353682
126	0xbdf0fc9e	-0.11766933
127	0xbf09a32c	-0.53764606
128	0x3e9aa123	0.30201063
129	0x3e9c6497	0.30545494
130	0xbf0bfa88	-0.54679155
131	0xbed8d610	-0.42350817
132	0xbe8e3d5b	-0.27781186
133	0x3d7be703	0.061499607
134	0x3ee32a32	0.4436813
135	0x3ed682c0	0.4189663
136	0xbe80ffee	-0.2519526
137	0x3dece2ac	0.11566672
138	0xbef03332	-0.4691406
139	0xbe142ed6	-0.14470991
140	0xbe871491	-0.26382878
141	0x3dafd735	0.08585969
142	0x3eaa4a31	0.3325973
143	0xbd0724e0	-0.03299415
144	0xbe554c38	-0.20829856
145	0xbe9d1248	-0.3067801
146	0x3e5d8e95	0.21636422
147	0xbec6f0ae	-0.388555
148	0xbe4641d1	-0.19361044
149	0xbd50e593	-0.05100019
150	0x3eb4a4b6	0.35281914
151	0xbee1d981	-0.44111255
152	0xbeca0846	-0.39459437
153	0xbd1a7ac3	-0.03771473
154	0x3ec731b4	0.38905108
155	0x3f0434af	0.5164289
156	0x3ecb7a18	0.39741588
157	0x3ee3e696	0.4451186
158	0xbef0921d	-0.46986476
159	0xbe60978d	-0.21932812
160	0x3e5a1d68	0.2130028
161	0xbe49af56	-0.19695792
162	0x3e0c0e2c	0.13677281
163	0xbe0b4a94	-0.13602668
164	0x3e4a5876	0.19760308
165	0x3e823cc5	0.25436988
166	0x3f012419	0.50445706
167	0xbec9d00a	-0.39416534
168	0xbe823db7	-0.2543771
169	0xbec69782	-0.38787466
170	0xbc92d214	-0.017922439
171	0x3ecdf6e4	0.40227425
172	0x3e010123	0.1259809
173	0xbf101258	-0.5627799
174	0xbe1aa98b	-0.15103738
175	0xbf0ab41e	-0.54181087
176	0x3bbc59fc	0.0057480317
177	0xbedba0c7	-0.428961
178	0x3ede537f	0.43423077
179	0xbea4ec96	-0.3221175
180	0x3d8869e5	0.06660823
181	0x3d9fe9ab	0.078082405
182	0xbe9d50a4	-0.30725586
183	0x3deae0e7	0.11468678
184	0x3d9cf63a	0.076641515
185	0x3e1ece6b	0.1550843
186	0xbcb9d8b1	-0.022686334
187	0x3e96f3d4	0.294829
188	0xbf003b7f	-0.50090784
189	0x3e79d943	0.24399285
190	0x3e88edec	0.2674402
191	0xbec15c68	-0.37765813

bias f4 [64]
0	0x3ed31ee7	0.41234514
1	0xbd9b32af	-0.075780265
2	0x3f009d8e	0.5024041
3	0x3ecbdd8b	0.3981746
4	0x3dfa48cc	0.12220916
5	0x3eaa2496	0.33231038
6	0xbec666b4	-0.3875023
7	0x3f0931ad	0.53591424
8	0x3eb3ff07	0.35155508
9	0x3e404b69	0.18778767
10	0x3e40991d	0.18808408
11	0x3efcc586	0.49369448
12	0xbe818381	-0.25295642
13	0x3e1376f3	0.14400844
14	0xbe1c230a	-0.15247741
15	0x3eb3a06a	0.35083324
16	0x3d9d9f68	0.0769642
17	0x3e0ab99c	0.13547367
18	0xbd1f31c1	-0.03886581
19	0xbdb43921	-0.08799959
20	0xba959d90	-0.0011414755
21	0xbef5d997	-0.4801757
22	0xbf05569c	-0.5208528
23	0x3d60d6b8	0.05489227
24	0xbd0d2852	-0.03446228
25	0x3dcd94cc	0.100381464
26	0xbe71b41b	-0.23603861
27	0x3eac4180	0.33643723
28	0x3e287e7a	0.16454497
29	0x3d7efc60	0.062252402
30	0xbea8a385	-0.32937256
31	0x3ce34f91	0.027747901
32	0x3e2cef5d	0.16888185
33	0x3db19277	0.08670514
34	0x3c41e7b6	0.011835029
35	0xbe0b5c70	-0.13609481
36	0xbe9253cd	-0.2857956
37	0xbda7a79d	-0.081862666
38	0x3df41237	0.11917537
39	0xbd8d59b7	-0.069018774
40	0xbe27c5ea	-0.16384092
41	0x3d95b6cb	0.073102556
42	0x3e870f9d	0.263791
43	0x3ea56c13	0.32309017
44	0xbf118977	-0.5685038
45	0x3ec6a026	0.3879406
46	0xbd376be6	-0.044780634
47	0xbe583ee2	-0.21117738
48	0xbe241a63	-0.1602569
49	0xbe2811c4	-0.16413027
50	0x3dcb6a9d	0.09932444
51	0x3effa191	0.49927953
52	0x3ec0d320	0.37661076
53	0xbea43e47	-0.32078764
54	0xbdfe2379	-0.124091096
55	0xbed9cfe3	-0.42541417
56	0xbe093ed9	-0.1340288
57	0xbee01e43	-0.43773088
58	0x3f001be4	0.5004256
59	0xbe41a51b	-0.18910639
60	0x3e20557e	0.15657613
61	0xbe99e4c8	-0.3005736
62	0x3dcc4b82	0.099753395
63	0xbc731167	-0.014835692

weight f4 [64, 64]
0	0x3d33d33e	0.043902628
1	0x3d05049c	0.0324751
2	0x3dec750c	0.115457624
3	0x3d2dde3a	0.04244826
4	0x3d6ca404	0.057773605
5	0x3db69ec6	0.089170024
6	0x3d951b2d	0.07280574
7	0x3c034602	0.008012297
8	0xbcdd1d9b	-0.026991656
9	0xbcd74fb8	-0.02628313
10	0x3dd630f7	0.10458558
11	0xbe01508c	-0.12628382
12	0x3ce49ff8	0.02790831
13	0xbd4a4d30	-0.049390018
14	0xbc24c2f9	-0.010056251
15	0xbddb3b51	-0.10704673
16	0x3cdf2988	0.027241483
17	0xbde41c7c	-0.111382455
18	0x3dce62c3	0.10077431
19	0x3d9a9e93	0.07549777
20	0x3d916299	0.07098884
21	0xbc831fca	-0.01600637
22	0x3cc7fc1a	0.024412204
23	0x3db51b02	0.08843042
24	0x3de60cf5	0.1123294
25	0x3da7f378	0.08200735
26	0xbd9cabea	-0.076499775
27	0x3d01df74	0.031707242
28	0xbd8cd7b6	-0.06877081
29	0xbdbd0ab2	-0.092305556
30	0xbdc78016	-0.09741227
31	0xbdfcb4e2	-0.12339188
32	0xbd46c300	-0.04852581
33	0x3de5fb4a	0.1122957
34	0x3da7a292	0.08185305
35	0xbd57a862	-0.052650817
36	0x3cde3917	0.027126832
37	0x3dbe330f	0.092870824
38	0x3c6aea90	0.014338151
39	0xbd21e0bc	-0.039520964
40	0xbcbaf0e3	-0.022819942
41	0x3d817abd	0.063222386
42	0xbd9715b2	-0.07377185
43	0x3ce64138	0.02810727
44	0x3dcc42ec	0.09973702
45	0x3d95a5c6	0.073070094
46	0x3de9f6b0	0.11424005
47	0xbc8a22ee	-0.016862359
48	0x3d27a3e8	0.040927798
49	0x3dbd21d8	0.09234971
50	0xbc425880	-0.01186192
51	0x3db48c8e	0.08815871
52	0xbda30205	-0.079593696
53	0x3bdb94a0	0.006701067
54	0xbdb69c30	-0.08916509
55	0xbd87f039	-0.06637616
56	0xbdf08126	-0.11743383
57	0x3c9c8ebe	0.019111034
58	0xbcb58cd0	-0.022161871
59	0xbd8ba5d9	-0.06818742
60	0xbcff2c5d	-0.031149084
61	0xbdba7ccc	-0.09105834
62	0x3ce86633	0.028369045
63	0xbb067a84	-0.0020519802
64	0x3d287cb0	0.041134536
65	0x3da5fb94	0.08104625
66	0xbb338400	-0.002739191
67	0xbdd08de0	-0.101833105
68	0x3d07bc5c	0.033138618
69	0x3ce17ec0	0.02752626
70	0xbdd5a940	-0.104326725
71	0x3d049b44	0.032374635
72	0xbcc89258	-0.024483845
73	0xbc8c21e0	-0.017105997
74	0x3d563a5c	0.05230175
75	0xbdd9a09c	-0.10626337
76	0x3d2ff6d0	0.042959988
77	0x3dfab9a2	0.12242438
78	0xbda4a7d6	-0.08039825
79	0x3bca6c00	0.0061774254
80	0x3ca76b88	0.020437017
81	0x3d84602a	0.06463654
82	0x3d19963c	0.03749679
83	0xbd8ac6f4	-0.067762285
84	0xbd425df4	-0.047452882
85	0x3ce73c50	0.028227001
86	0xbc98f718	-0.018672511
87	0x3d26256c	0.040563032
88	0xbdccda22	-0.10002543
89	0x3dbe126a	0.09280856
90	0xbd8bb99c	-0.068225116
91	0x3d255cac	0.040371582
92	0x3d5c5d6c	0.05380003
93	0x3d61e880	0.05515337
94	0x3cd084d8	0.02545397
95	0xbd9248ea	-0.071428135
96	0xbd361fbc	-0.044463858
97	0xbd03bb04	-0.032160774
98	0x3da3ef58	0.080046356
99	0x3dcdcd96	0.10048978
100	0x3cc83380	0.02443862
101	0xbdc248e8	-0.09486562
102	0xbdacfaea	-0.084462956
103	0x3d21840c	0.03943257
104	0xbd243908	-0.04009345
105	0xbb374fc0	-0.0027971119
106	0xbbb77f80	-0.005599916
107	0x3db8b784	0.09019378
108	0xbdaf29ac	-0.0855287
109	0x3dd9ba84	0.10631278
110	0x39561000	0.00020414591
111	0xbba21c00	-0.0049471855
112	0xbd8496c6	-0.0647407
113	0x3ddd9700	0.108198166
114	0xbc54a4a0	-0.012978703
115	0xbd8e9444	-0.06961873
116	0xbd348cfc	-0.044079766
117	0xbd6bc6a8	-0.0575625
118	0xbcc933b8	-0.024560794
119	0x3d7322ac	0.059359238
120	0x3d703ed4	0.058653668
121	0x3d194528	0.03741947
122	0x3cdff1f0	0.027337044
123	0xbdf30f52	-0.118681565
124	0x3da7bd14	0.08190361
125	0xbd208f3c	-0.0391991
126	0xbdd5dc32	-0.104423895
127	0xbce86a28	-0.028370932
128	0xbc272910	-0.010202661
129	0x3d40bfbc	0.047057852
130	0xbdafe640	-0.085888386
131	0xbd891e6c	-0.06695256
132	0x3dacb31e	0.084326014
133	0x3d1b0990	0.037850916
134	0xbdb437d4	-0.08799711
135	0x3df2adf6	0.11849587
136	0x3d44a5a0	0.048009515
137	0xbd491958	-0.049096435
138	0xbd093eb0	-0.03350705
139	0x3db78c7e	0.08962344
140	0x3d5cf9e8	0.053949267
141	0xbdbd2fdc	-0.09237644
142	0xbdbfb20a	-0.0936013
143	0xbdd22956	-0.102617905
144	0x3c1c4670	0.009538278
145	0x3dd057de	0.10173009
146	0xbd17ba80	-0.037043095
147	0xbde89ce8	-0.113580525
148	0xbd708a18	-0.058725446
149	0xbdd124ea	-0.10212119
150	0x3c6afba0	0.014342219
151	0x3d2fd3c8	0.04292658
152	0xbdb82248	-0.08990914
153	0xbd62b430	-0.05534762
154	0x3dbf2dec	0.09334931
155	0x3daf74b8	0.08567184
156	0xbd613e88	-0.054991275
157	0x3c1a4890	0.009416714
158	0x3db127ca	0.08650167
159	0xbd96ba5a	-0.073597625
160	0xbd240c5c	-0.04005085
161	0xbdde23f6	-0.10846703
162	0xbdc878b0	-0.09788644
163	0xbc0d6970	-0.008631095
164	0x3d294480	0.041325092
165	0xbdccd3ac	-0.10001311
166	0x3dfc9cb4	0.12334576
167	0xbdf2fb48	-0.11864334
168	0xbc93e408	-0.01805307
169	0x3cb47830	0.022029966
170	0x3dd50e1c	0.10403082
171	0xbd48fcbc	-0.04906915
172	0x3d6dc8f8	0.058052987
173	0x3c758d70	0.014987335
174	0x3defec36	0.117149755
175	0xbda531c2	-0.08066131
176	0x3dad37e2	0.084579244
177	0xbccb0ca8	-0.024786308
178	0x3dd2fc40	0.10302019
179	0x3d195094	0.03743036
180	0x3d1073c0	0.035266638
181	0xbdc2ff70	-0.09521377
182	0xbda84b8c	-0.082175344
183	0x3d8beb56	0.06831996
184	0xbde87362	-0.113501325
185	0x3d9aa042	0.07550098
186	0xbc920998	-0.01782684
187	0x3dedf4b6	0.116189405
188	0xbd876204	-0.06610492
189	0xbd0fe538	-0.03513071
190	0x3ddb5cbe	0.107110485
191	0x3d0f1654	0.034933403
192	0xbdcd0ee6	-0.10012607
193	0xbce15040	-0.027504086
194	0xbd467ae4	-0.04845704
195	0x3c8bc240	0.017060399
196	0x3dbcb41c	0.09214041
197	0xbdc9328a	-0.09824093
198	0xbdeadb4c	-0.11467609
199	0xbd807e6a	-0.062741116
200	0xbc39afc0	-0.011333406
201	0x3c2e1520	0.010625154
202	0xbdac1498	-0.084023654
203	0xbcbe8dd8	-0.023260996
204	0x3d5a0e94	0.05323656
205	0xbca67de0	-0.020323694
206	0xbd078310	-0.033083975
207	0xbdd7f6b0	-0.10545099
208	0xbddba582	-0.107249275
209	0xbd0b3784	-0.03398849
210	0x3cba2040	0.022720456
211	0x3c085320	0.0083206
212	0x3dd58798	0.10426253
213	0x3da9a8c0	0.0828414
214	0x3d837daa	0.06420453
215	0x3dc3ace0	0.09554458
216	0xbb889340	-0.004167944
217	0xbdbe4496	-0.092904255
218	0xbd7f35e0	-0.06230724
219	0x3d2738f8	0.040825814
220	0x3dbeadd8	0.09310502
221	0xbd76a1e4	-0.060212985
222	0xbd423418	-0.04741296
223	0x3d248bbc	0.040172324
224	0xbccc8f10	-0.024970561
225	0xbd2b21f4	-0.041780427
226	0xbc09c9a0	-0.008409888
227	0xbd592830	-0.05301684
228	0xbdb4714c	-0.08810672
229	0x3c2bd350	0.010487393
230	0x3d3527b8	0.044227332
231	0xbd88b7ac	-0.06675658
232	0xbd45e084	-0.048309818
233	0x3ccf2ef8	0.025290951
234	0xbdf5ac94	-0.11995807
235	0x3d847494	0.06467548
236	0xbc109f70	-0.008827075
237	0x3d61990c	0.055077597
238	0xbc975808	-0.018474594
239	0xbdc88758	-0.0979144
240	0x3d53b63c	0.051687464
241	0xbda85734	-0.08219758
242	0x3d9876e2	0.0744455
243	0x3d1e2b58	0.038615555
244	0x3dd3d982	0.10344221
245	0x3d54706c	0.051865026
246	0x3c6facb0	0.014628574
247	0x3d32c058	0.043640465
248	0x3c7ff080	0.0156213045
249	0xbde80ece	-0.11330949
250	0x3cc88b10	0.024480373
251	0xbd951dae	-0.072810516
252	0x3d177aec	0.03698246
253	0xbdde8576	-0.108652994
254	0xbdf9e314	-0.12201515
255	0x3ddd0412	0.10791792

bias f4 [64]
0	0xbdecbba8	-0.1155923
1	0xbd9cbc04	-0.07653049
2	0xbdd5d490	-0.10440934
3	0xbdb04e9e	-0.08608745
4	0xbddbb3b0	-0.10727632
5	0x3de6af72	0.11263932
6	0x3de2b8de	0.11070417
7	0x3bad0a42	0.005280764
8	0xbcdccf08	-0.026954189
9	0xbcb1e2f8	-0.021714672
10	0x3da4b840	0.080429554
11	0x3db695cd	0.08915291
12	0x3bf50bc0	0.0074782073
13	0xbdf7ba22	-0.12096049
14	0xbdd3e1be	-0.10345791
15	0x3cb30d58	0.021856949
16	0xbda1446a	-0.07874377
17	0x3d326e62	0.0435623
18	0x3d22a254	0.03970559
19	0x3d78761d	0.060659517
20	0x3e053839	0.13009728
21	0xbde2012c	-0.1103538
22	0xbdde8458	-0.10865086
23	0xbc941ad8	-0.018079206
24	0xbdd9f710	-0.106428266
25	0xbdc7e050	-0.09759581
26	0x3d2e0906	0.042489074
27	0x3ddf241e	0.10895561
28	0x3d13a684	0.036047474
29	0xbdaa46c0	-0.08314276
30	0x3dab4998	0.08363646
31	0x3dd1bea8	0.10241443
32	0x3d9ae9b6	0.07564108
33	0xbcc576c1	-0.024104478
34	0xbc5e5230	-0.0135694
35	0x3dee9d78	0.116511285
36	0xbd8ba24c	-0.06818065
37	0xbdeb8618	-0.11500186
38	0x3d1623f5	0.036655385
39	0xbcf6ff36	-0.030150991
40	0xbdb03e4f	-0.086056344
41	0x3d6ec1e4	0.058290377
42	0x3ab05280	0.0013452321
43	0xbd70a300	-0.0587492
44	0xbc985fee	-0.01860043
45	0x3d9c25ec	0.076244205
46	0xbd5296c4	-0.051413313
47	0xbd4263b2	-0.047458358
48	0x3d8b5de8	0.068050206
49	0xbcb24c45	-0.021764884
50	0x3db3fd58	0.08788556
51	0x3d0d61dc	0.034517154
52	0x3db15ad0	0.08659899
53	0xbd0fcf38	-0.03510973
54	0x3a8f2984	0.0010922407
55	0x3db94b40	0.09047556
56	0x3df3422a	0.11877854
57	0x3b76b700	0.0037645698
58	0x3cddf2d8	0.027093336
59	0x3d2d23ec	0.042270586
60	0xbd6437e2	-0.055717357
61	0x3d4a5fcc	0.049407765
62	0x3d348e6c	0.044081137
63	0x3d11a442	0.03555704

weight f4 [1, 64]
0	0x3d1af782	0.037833698
1	0x3d135180	0.035966396
2	0xbd94cd5e	-0.07265733
3	0x3d0dac78	0.034588307
4	0x3809f000	3.2886863e-05
5	0xbc484f10	-0.012225881
6	0xbdc924e4	-0.098214895
7	0x3c4f0acf	0.012636854
8	0x3ca1bf28	0.01974447
9	0x3df2152e	0.11820446
10	0x3d5e9b16	0.05434712
11	0xbd3ce4d4	-0.046116665
12	0xbdff2c80	-0.124596596
13	0x3b387ac0	0.0028149337
14	0xbdb20d94	-0.08693996
15	0x3d8116fe	0.063032135
16	0xbc80e970	-0.015736312
17	0xbd3d52d9	-0.046221588
18	0xbc967620	-0.018366873
19	0x3dabda7c	0.08391282
20	0x3da06204	0.07831195
21	0x3de53c89	0.11193187
22	0x3d8841f3	0.06653204
23	0x3dc0c4e2	0.094125524
24	0xbdbd5ca8	-0.092461884
25	0x3dd023c1	0.101630695
26	0x3d75c1ed	0.059999395
27	0x3de6fa26	0.11278181
28	0xbcec3314	-0.02883295
29	0x3d6f4378	0.058413953
30	0x3d1e54bc	0.038655028
31	0xbdb047f0	-0.08607471
32	0xbd1d47ec	-0.03839867
33	0xbd6f4f2b	-0.05842511
34	0x3c80ba78	0.015713915
35	0xbd4ab0b8	-0.04948494
36	0xbdf21f0c	-0.11822328
37	0xbb8a14fd	-0.004213928
38	0xbdcdcd85	-0.10048965
39	0xbb1d36be	-0.0023988928
40	0x3dcc1005	0.09963993
41	0x3d980e18	0.07424563
42	0xbd91fc20	-0.07128167
43	0x3d5a4a98	0.053293794
44	0x3d285722	0.04109872
45	0xbcec82c8	-0.028870955
46	0xbd7a2e68	-0.061079413
47	0xbdd24e04	-0.102687865
48	0xbd288b94	-0.041148737
49	0xbe04acac	-0.12956494
50	0xbc2f2120	-0.01068905
51	0x3c8acbf1	0.01694295
52	0x3cda85b0	0.026675075
53	0x3b7b1f40	0.0038318187
54	0x3c80f1e3	0.01574034
55	0xbc9031d0	-0.017601877
56	0xbdd8c86d	-0.10585103
57	0x3b8a3f20	0.004218951
58	0x3ce2e490	0.027696878
59	0xbcf93f7c	-0.03042578
60	0xbd4db049	-0.050216947
61	0xbcb43ab0	-0.02200064
62	0xbd0d5590	-0.034505427
63	0xbdc2974a	-0.09501512

weight f4 [4, 64]
0	0x3c4796d4	0.012181956
1	0xbde79822	-0.11308314
2	0x3d6119fc	0.05495642
3	0xbd0af424	-0.033924237
4	0x3d957216	0.07297151
5	0xbdc35290	-0.09537232
6	0x3d82d931	0.06389082
7	0xbc7f7917	-0.015592835
8	0x3d1e3684	0.03862621
9	0x3bca6400	0.0061764717
10	0xbc9ccf7a	-0.019141901
11	0x3d8eb296	0.06967656
12	0xbda76d8e	-0.08175193
13	0x3da24ac2	0.07924415
14	0x3d92f0ae	0.07174812
15	0x3c7970d0	0.0152246505
16	0x3dc457ca	0.09587057
17	0xbd8d8705	-0.069105186
18	0xbdae892c	-0.08522257
19	0xbd50538e	-0.050860934
20	0x3a096e39	0.000524256
21	0x3d98d3e8	0.07462293
22	0xbc7bcbcd	-0.015368414
23	0x3ddae6c8	0.10688549
24	0x3d744834	0.05963917
25	0x3cfd432e	0.030915823
26	0x3da6d0f1	0.08145321
27	0xbb8b0740	-0.0042428076
28	0xbdcb7d82	-0.09936048
29	0xbd5898a4	-0.052879944
30	0xbdda465a	-0.1065795
31	0xbdab93c0	-0.083777905
32	0xbb05a2c0	-0.0020391196
33	0x3dc86db4	0.09786549
34	0xbcee0638	-0.0290557
35	0xbddd4c4f	-0.1080557
36	0x3cb0f5a0	0.021601498
37	0x3c8fc12c	0.017548166
38	0x3dc9a776	0.09846394
39	0xbd38288a	-0.044960536
40	0x3de50b45	0.1118379
41	0x3d72d2ec	0.059283182
42	0x3ddb3a38	0.10704464
43	0x3d9d3284	0.07675651
44	0x3da98adb	0.08278438
45	0x3c59c510	0.013291612
46	0x3d04bc0c	0.032405898
47	0xbdcb7a1d	-0.09935401
48	0x3d1ae9ec	0.03782074
49	0xbd928af5	-0.0715541
50	0xbde2e39c	-0.11078569
51	0xbdba7061	-0.09103466
52	0xbd1a855c	-0.037724838
53	0xbd966aec	-0.073446125
54	0xbc0b9de1	-0.008521528
55	0xbdd7539e	-0.105139956
56	0xbddaa862	-0.10676648
57	0x3dfaeedc	0.1225259
58	0x3dbe9552	0.09305824
59	0xbdccc0f6	-0.09997742
60	0x3db65a6e	0.08903967
61	0xbdfa2fa8	-0.12216121
62	0xbc6f0bc0	-0.014590204
63	0xbdf1464b	-0.117809854
64	0xbd35adb6	-0.044355117
65	0xbcf95990	-0.030438215
66	0xbc0b46c0	-0.008500755
67	0x3d117158	0.035508484
68	0xbd81e134	-0.06341782
69	0x3d3a5ac8	0.045496732
70	0x3d8763c7	0.06610828
71	0xbc2846a1	-0.0102707455
72	0x3d7226d4	0.05911906
73	0x3dd51aa8	0.10405475
74	0x3cac394f	0.02102342
75	0x3dd08d58	0.10183209
76	0x3dcedab2	0.101003066
77	0x3d475e64	0.048674002
78	0x3dda7dac	0.10668501
79	0x3cd7f068	0.026359752
80	0xbc865598	-0.016398236
81	0x3d7e031e	0.06201469
82	0x3dbfb240	0.0936017
83	0x3dbe05cf	0.09278452
84	0x3d261f4b	0.040557187
85	0x3c787ea1	0.015166909
86	0x3df9a155	0.12188975
87	0xbbc13620	-0.005896345
88	0xbde2131c	-0.11038801
89	0xbdd49442	-0.103798404
90	0x3df13ac3	0.11778786
91	0x3cb7d6b8	0.022441253
92	0x3c275722	0.010213645
93	0xbce23110	-0.027611285
94	0x3d2a1424	0.041523114
95	0x3d72a9dc	0.05924402
96	0x3d8647d2	0.065566674
97	0xbaf81a2e	-0.0018928701
98	0xbdeaa354	-0.114569336
99	0x3dbd6818	0.0924837
100	0xbc8cc110	-0.017181903
101	0xbd0b05fe	-0.03394126
102	0xbc8a4f1b	-0.016883424
103	0xbd6a4547	-0.057194974
104	0xbd9f198d	-0.07768545
105	0xbdabd09a	-0.08389397
106	0x3b357c00	0.0027692318
107	0xbddac430	-0.10681951
108	0xbdea0a85	-0.11427788
109	0x3d6f2ca0	0.058392167
110	0xbc8a5950	-0.01688829
111	0x3d98acf2	0.07454862
112	0x3d8cdc96	0.06878011
113	0xbdbc62d8	-0.091985404
114	0x3dbf798a	0.093493536
115	0xbdbc50f2	-0.091951266
116	0x3ce05008	0.027381912
117	0x3db658d0	0.089036584
118	0xbdc7514f	-0.09732305
119	0xbd8998a8	-0.0671857
120	0xbd464f19	-0.048415277
121	0xbd5b5d40	-0.053555727
122	0x3c9be8f8	0.019031987
123	0xbda3d021	-0.07998682
124	0xbdb85f70	-0.09002578
125	0x3c81e320	0.015855372
126	0xbd9ae0fe	-0.07562445
127	0xbc871a1f	-0.016491948
128	0xbd2f3818	-0.042778105
129	0x3df64506	0.12024884
130	0xbd42169c	-0.047384843
131	0x3daf95de	0.08573507
132	0xbdfeb4b6	-0.124368116
133	0xbda9c002	-0.08288576
134	0xbd9f36ae	-0.07774101
135	0xbda1596c	-0.07878384
136	0x3dd99ffa	0.10626216
137	0xbd4be424	-0.04977812
138	0x3d305848	0.04305294
139	0x3cdc5650	0.026896626
140	0x3de8ecde	0.11373304
141	0xbd376550	-0.044774354
142	0xbd9add62	-0.07561757
143	0x3c6b07c0	0.014345109
144	0xbd6d6a10	-0.057962477
145	0xbd9996a6	-0.07499437
146	0x3d8b710c	0.06808671
147	0x3da73d32	0.08165969
148	0x3d11244c	0.035435006
149	0xbdd3e8d4	-0.10347143
150	0xbd91adcc	-0.07113227
151	0x3deae63c	0.11469695
152	0xbd2b7bf8	-0.041866273
153	0x3d26a7cc	0.040687367
154	0xbdcf488a	-0.101212576
155	0x3dad9d46	0.08477263
156	0x3d6e3a7c	0.058161244
157	0xbd68940c	-0.056781814
158	0x3d34ee4c	0.04417257
159	0xbdd6219e	-0.10455631
160	0x3bc50140	0.006012112
161	0x3dc0ebe4	0.094199926
162	0x3da80044	0.08203176
163	0x3ca75888	0.020427957
164	0xbcc7f840	-0.024410367
165	0x3dd32aee	0.103109226
166	0x3b48ab00	0.0030619502
167	0xbda2e5b6	-0.0795397
168	0xbd34ec08	-0.04417041
169	0xbb31b4c0	-0.0027115792
170	0x3b1e9f80	0.0024203956
171	0x3d6c9dd4	0.057767704
172	0xbd9f814e	-0.07788335
173	0x3db3f636	0.087871954
174	0xbd3c1284	-0.045916095
175	0xbd6951c0	-0.05696273
176	0xbdc803f0	-0.09766376
177	0x3d9dc9e0	0.0770452
178	0x3de6a204	0.11261371
179	0x3da492f8	0.080358446
180	0xbd94dfa6	-0.0726922
181	0x3dfc3920	0.12315583
182	0x3cec8348	0.028871194
183	0xbd2b8c28	-0.04188171
184	0x3c1a9770	0.00943552
185	0xbd407bf8	-0.046993226
186	0xbd31fbac	-0.043452904
187	0x3d3e1a34	0.046411708
188	0xbd8e02c8	-0.06934124
189	0xbca95330	-0.02066955
190	0xbdc1ef76	-0.09469502
191	0xbd1bb658	-0.038015693
192	0x3dec8216	0.115482494
193	0xbd83005c	-0.06396553
194	0xbc03d2c0	-0.008045852
195	0xbc957f78	-0.018249258
196	0xbd8ae45c	-0.06781837
197	0x3d9fb778	0.07798666
198	0x3d6314bc	0.055439696
199	0xbd9cde14	-0.076595455
200	0x3d070f80	0.032973766
201	0x3ce01668	0.027354434
202	0xbd05f550	-0.03270465
203	0x3c472980	0.01215589
204	0x3da448ce	0.08021699
205	0xbcbf5bb8	-0.023359165
206	0xbd8419cc	-0.06450233
207	0xbcb05f90	-0.021529943
208	0x3c3daee0	0.011577338
209	0xbde0602e	-0.10955845
210	0xbd82bde2	-0.063838735
211	0x3dcb5788	0.09928805
212	0x3da79f0c	0.08184633
213	0x3d8640fa	0.06555362
214	0x3cee8fd8	0.029121324
215	0xbdb9b5cc	-0.09067878
216	0xbd61e510	-0.05515009
217	0x3d5a07b8	0.053230017
218	0xbdb5a2c6	-0.08868937
219	0x3df95d4c	0.12175998
220	0x3d44ef80	0.048079967
221	0x3d7e2e80	0.062056065
222	0x3d3ef75c	0.04662262
223	0x3dc13292	0.09433474
224	0xbc481ab0	-0.012213394
225	0x3de552e2	0.11197449
226	0xbde316fe	-0.1108837
227	0x3ceedb28	0.029157236
228	0x3c81eb60	0.015859306
229	0x3d560530	0.05225104
230	0x3cbbd570	0.022928923
231	0x3d0bf360	0.034167647
232	0xbdedf48a	-0.11618908
233	0x3be2c880	0.006920874
234	0x3d5e98e0	0.05434501
235	0x3de8f256	0.11374347
236	0xbc4ed610	-0.012624279
237	0xbd98ec3e	-0.074669346
238	0x3d816780	0.06318569
239	0xbd759fc8	-0.059966832
240	0x3da18096	0.07885854
241	0xbc7a1b70	-0.015265331
242	0x3b1e4080	0.0024147332
243	0xbd21e388	-0.03952363
244	0x3d83e6c4	0.064404994
245	0x3d90486a	0.07045062
246	0xbd819c06	-0.06328587
247	0x3d4d2f3c	0.050093874
248	0xbd52ed5c	-0.051495895
249	0xbde4d2f0	-0.11173046
250	0x3ddeba1c	0.10875341
251	0xbd29d638	-0.04146406
252	0x3d405328	0.046954304
253	0xbc8c0f60	-0.017097175
254	0x3d9b44bc	0.075814694
255	0x3d4ccdfc	0.05000113

bias f4 [4]
0	0x3d3eeb36	0.046611033
1	0x3d12bbe3	0.035823714
2	0x3dee62a0	0.11639905
3	0xbd9697c2	-0.07353164
