src/calibration/models/test/test_robot_predictor_joint_numAxes3/axis_1.pt (torch, 27362 bytes, 7 tensors)

weight f4 [64, 3]
0	0x3f0dbd89	0.5536733
1	0xbf041931	-0.5160094
2	0x3e0b6985	0.13614471
3	0xbe74e193	-0.23914175
4	0xbdfe12d6	-0.124059364
5	0xbde7b059	-0.113129325
6	0xbe8049a2	-0.25056177
7	0x3e6e6eda	0.23284474
8	0x3efdfd6c	0.49607408
9	0xbf0bcfcf	-0.54613966
10	0x3d49368c	0.049124286
11	0xbec3cfe2	-0.3824454
12	0x3ee47ae3	0.44625005
13	0xbd854c37	-0.065086775
14	0xbc88ee1c	-0.016715102
15	0x3f136f4b	0.57591695
16	0x3df19e40	0.11797762
17	0xbd86844d	-0.06568203
18	0xbed983fb	-0.42483506
19	0x3edbd9d5	0.4293963
20	0x3f0daeed	0.5534504
21	0x3e072f1d	0.13201566
22	0x3df41f2f	0.1192001
23	0xbdb73baf	-0.089469306
24	0x3dce64ae	0.10077797
25	0xbee93f78	-0.45556235
26	0xbe0622e2	-0.13099244
27	0xbbcee589	-0.006313984
28	0xbe8223d3	-0.25417957
29	0xbd294a01	-0.04133034
30	0xbcb69d7e	-0.022291895
31	0x3e0aba81	0.13547708
32	0xbd65dd3e	-0.056119196
33	0xbd8810ce	-0.0664383
34	0xbd2a07f4	-0.04151149
35	0xbe546591	-0.2074187
36	0x3eeee06f	0.46655604
37	0x3f049682	0.51792157
38	0xbbbf0c0a	-0.0058302926
39	0x3e0ed7b0	0.13949466
40	0x3d30f7b5	0.04320498
41	0x3ef34ebb	0.47521004
42	0x3ed23c50	0.4106164
43	0xbe1d7543	-0.15376763
44	0xbe628c34	-0.22123796
45	0xbe645e45	-0.22301586
46	0xbf0d7b68	-0.5526643
47	0xbf0b416d	-0.54396707
48	0xbe677858	-0.22604501
49	0x3e6daf1c	0.2321133
50	0xbe8aa344	-0.27077687
51	0xbe585382	-0.21125606
52	0x3ede833c	0.434595
53	0xbdebbd8e	-0.11510764
54	0xbeed572d	-0.46355572
55	0x3e215ed6	0.15758833
56	0xbe91f2d5	-0.2850558
57	0x3e89fdba	0.2695139
58	0x3ec8a160	0.3918562
59	0x3eec60b4	0.4616753
60	0x3e4e3c51	0.20140196
61	0x3f048e48	0.51779604
62	0xbf015694	-0.5052273
63	0xbeba5639	-0.36393908
64	0xbefdc02d	-0.4956068
65	0xbd4f5bad	-0.05062454
66	0x3ef31d18	0.47483134
67	0x3e85fc61	0.26169112
68	0x3e87229d	0.26393595
69	0xbeb2ac75	-0.348972
70	0xbeaa3917	-0.3324668
71	0xbdeedb74	-0.11662951
72	0xbec98f96	-0.3936736
73	0xbe2848ec	-0.16434067
74	0xbe9e2eff	-0.3089523
75	0xbc25b519	-0.010113978
76	0xbd819c36	-0.06328623
77	0xbe591232	-0.21198347
78	0x3eed8b87	0.46395513
79	0x3ecc6e1a	0.3992775
80	0xbeca327e	-0.39491647
81	0x3e7170c1	0.23578168
82	0x3ef0ef3c	0.4705752
83	0xbd33ec5e	-0.04392659
84	0x3be7769d	0.0070637004
85	0xbebfdc40	-0.37472725
86	0x3e9ff934	0.31244814
87	0x3d803a96	0.062611744
88	0xbc31cd7c	-0.010852214
89	0x3ee3ccf6	0.4449231
90	0x3eadbc59	0.3393276
91	0xbec6453e	-0.38724703
92	0x3ec44d0e	0.38340038
93	0x3ef74a4d	0.48298874
94	0x3e54c9c3	0.20780091
95	0xbea9f006	-0.33190936
96	0x3ee23d35	0.44187322
97	0x3e545b48	0.20737946
98	0x3df55142	0.11978389
99	0x3ee0a79e	0.43877882
100	0xbe70e603	-0.23525243
101	0xbd68d6de	-0.05684554
102	0xbebdb14f	-0.37049338
103	0x3eaa9d43	0.33323106
104	0x3ede2e1c	0.43394554
105	0x3e1c3474	0.15254384
106	0x3eb05a21	0.34443763
107	0xbf076090	-0.5288172
108	0x3ebc3ae8	0.36763692
109	0x3ed81983	0.42206964
110	0x3e94999c	0.29023445
111	0xbec4c9cc	-0.3843521
112	0x3efe3671	0.4965091
113	0xbf0e65db	-0.5562417
114	0x3ec1f563	0.37882528
115	0x3eff6e8b	0.49889025
116	0xbde608bf	-0.11232137
117	0xbe9dfeea	-0.30858546
118	0x3f0231cf	0.5085725
119	0x3e014e62	0.12627557
120	0xbe6620d7	-0.22473465
121	0xbed3ba69	-0.41353157
122	0xbed03e26	-0.40672415
123	0xbe714e39	-0.23564996
124	0x3e721aa6	0.23642978
125	0xbde40a54	-0.111347824
126	0x3f11ca64	0.5694945
127	0xbecce65d	-0.40019503
128	0xbe2796ef	-0.1636617
129	0x3ec3969a	0.38200837
130	0xbe7e7d24	-0.24852425
131	0x3e8f43ca	0.27981406
132	0x3d93c0a2	0.07214476
133	0xbc565db8	-0.013083868
134	0xbefb8d98	-0.49131465
135	0xbec3d623	-0.3824931
136	0xbe8978cf	-0.26849982
137	0x3e8c2b54	0.27376807
138	0xbf020b68	-0.50798655
139	0xbf087aab	-0.53312176
140	0x3eaaf272	0.33388096
141	0xbee772bc	-0.45204723
142	0x3e8b55d3	0.27213916
143	0x3ba5a45f	0.005054995
144	0xbe5a8987	-0.21341525
145	0x3efb3aac	0.490682
146	0xbd921607	-0.07133108
147	0xbea8f0d2	-0.3299623
148	0xbebfe1c3	-0.3747693
149	0x3e356865	0.17715605
150	0xbed79d99	-0.42112425
151	0x3ea77eb9	0.3271387
152	0xbe895c42	-0.268282
153	0xbee0348e	-0.43790096
154	0xbeb66f20	-0.35631657
155	0xbdd3e918	-0.103471935
156	0x3eee304c	0.46521223
157	0x3e0d072e	0.1377227
158	0x3eba56d8	0.36394382
159	0xbdc0e7c3	-0.09419205
160	0xbeb9cd56	-0.3628947
161	0xbeba68e3	-0.36408147
162	0x3d7fdd09	0.062466655
163	0xbeb46d64	-0.35239708
164	0x3eb34331	0.350122
165	0xbd867e08	-0.06567007
166	0x3e02475f	0.12722538
167	0xbc9dc41b	-0.01925855
168	0x3eb78bc5	0.35848823
169	0x3ee41f74	0.44555247
170	0x3e977379	0.29580286
171	0x3eb430a3	0.35193357
172	0x3eeace91	0.45860723
173	0xbec2a5d4	-0.38017142
174	0xbcc3d04b	-0.023903033
175	0xbe7a2087	-0.2442647
176	0xbf0d681a	-0.5523697
177	0x3de19b29	0.110159226
178	0x3f076368	0.52886057
179	0x3c27822c	0.0102239065
180	0xbe691d53	-0.22765093
181	0xbee7a19e	-0.45240492
182	0x3f11e456	0.5698904
183	0xbddc5a55	-0.10759417
184	0x3e1d45f7	0.1535872
185	0xbea7636a	-0.32693034
186	0xbeb49d0f	-0.35276076
187	0x3d8f2d43	0.06991055
188	0x3ea2bf64	0.31786644
189	0x3ee6691e	0.45002073
190	0x3e72f5aa	0.23726526
191	0xbed726df	-0.42021844

bias f4 [64]
0	0xbe1cb3f9	-0.15303029
1	0xbeda66be	-0.4265651
2	0x3e85ac61	0.26108077
3	0xbf0c3390	-0.5476618
4	0xbeb27163	-0.34852132
5	0x3e9a247a	0.30105954
6	0xbeec860f	-0.4619603
7	0x3ef5a6e5	0.47978893
8	0x3e587ca1	0.21141292
9	0x3e808326	0.25100058
10	0x3d6bd53b	0.0575764
11	0xbe231c48	-0.15928757
12	0x3e271494	0.16316444
13	0xbdbacaa3	-0.09120681
14	0x3ef5b220	0.4798746
15	0x3edeb1e2	0.4349509
16	0x3f0fe448	0.56207705
17	0x3e9202f8	0.2851789
18	0xbf064e02	-0.5246278
19	0x3ef2b4f4	0.4740368
20	0xbe66135f	-0.22468327
21	0x3eaad543	0.3336583
22	0x3ee26cce	0.44223636
23	0xbe580b2e	-0.21098015
24	0xbed00ee1	-0.40636352
25	0x3edac524	0.4272853
26	0x3ecdf552	0.40226227
27	0x3f01a14b	0.5063674
28	0x3e849807	0.25897238
29	0xbf0dfa59	-0.55460125
30	0xbef36654	-0.47539008
31	0xbee70a6a	-0.45125133
32	0xbdc7a136	-0.097475454
33	0x3c6a22c6	0.014290517
34	0xbeab1f4c	-0.33422315
35	0x3f0b6d1f	0.5446338
36	0x3db7e371	0.08978928
37	0x3de2a73f	0.11067056
38	0xbdf7c7f0	-0.12098682
39	0xbe8e967a	-0.2784918
40	0xbf103ebe	-0.56345737
41	0x3dcea3e8	0.100898564
42	0x3f1055df	0.5638103
43	0x3f051f94	0.5200131
44	0x3ecf7db2	0.40525585
45	0x3e57b7f3	0.21066265
46	0x3ea30cd8	0.31845737
47	0x3e8515e8	0.25993276
48	0x3bbd4f11	0.0057772477
49	0x3f078f7a	0.529533
50	0xbecbae90	-0.39781618
51	0xbe72afd9	-0.23699893
52	0xbe39420a	-0.18091598
53	0xbe815f4f	-0.25268027
54	0x3ed2b19f	0.4115114
55	0x3da0ca60	0.078511
56	0x3ed8d6f8	0.42351508
57	0x3f059e78	0.5219493
58	0x3dd23102	0.10263254
59	0xbf0e8db5	-0.5568498
60	0xbdefab03	-0.1170254
61	0xbeef04a6	-0.46683234
62	0x3e573897	0.21017681
63	0x3a0d47f1	0.0005389443

weight f4 [64, 64]
0	0xbd9ba6a8	-0.076001465
1	0x3b37fb80	0.002807349
2	0xbd99b3b6	-0.0750498
3	0x3cadeac0	0.021230102
4	0x3dcda4aa	0.10041173
5	0x3dbac508	0.09119612
6	0xbd4c0750	-0.04981166
7	0xbceb7fb8	-0.028747424
8	0xbdffb218	-0.124851406
9	0xbdb36d3c	-0.08761069
10	0x3d806f08	0.062711775
11	0xbce5e610	-0.028063804
12	0x3d68890c	0.056771323
13	0x3df16e74	0.117886454
14	0x3df4d50a	0.119546965
15	0xbd8699ac	-0.06572279
16	0x3c675bd0	0.014121011
17	0x3c95cc00	0.018285751
18	0xbd9c3940	-0.07628107
19	0x3d111824	0.035423413
20	0xbd22db54	-0.03975995
21	0xbdf5019a	-0.11963196
22	0x3da0c4e8	0.07850057
23	0xbde0c12a	-0.10974343
24	0xbdffb7dc	-0.1248624
25	0x3db56926	0.08857946
26	0xbde9bf10	-0.114133954
27	0xbda608a4	-0.08107117
28	0xbbe073c0	-0.006849736
29	0xbcdc5318	-0.026895091
30	0x3da76b06	0.0817471
31	0x3de58228	0.11206466
32	0xbd9c86d8	-0.07642907
33	0xbddf4696	-0.10902135
34	0xbdfce844	-0.12348989
35	0x3d3a322c	0.045458004
36	0xbdb03c96	-0.08605306
37	0x3d1d8140	0.03845334
38	0x3cf2bb30	0.029630274
39	0x3dcd04fe	0.10010718
40	0xbd941c7a	-0.07231994
41	0x3dfb42be	0.122685894
42	0xbdb1b8fa	-0.086778596
43	0xbda1dca8	-0.07903415
44	0xbc0e4f40	-0.008685887
45	0x3d81d29a	0.06338997
46	0xbdb50bfe	-0.08840178
47	0xbdc23e8a	-0.09484585
48	0x3d90389e	0.07042049
49	0xbda6ed6a	-0.08150752
50	0x3d2dcea0	0.04243338
51	0x3db7e03a	0.08978315
52	0xbb2ecf00	-0.0026673675
53	0x3dbd054a	0.092295244
54	0xbdd83b22	-0.10558154
55	0xbdfcbe3a	-0.1234097
56	0x3de83edc	0.113401145
57	0xbd7eedac	-0.06223838
58	0x3df973ea	0.12180312
59	0xbdfc72a2	-0.12326552
60	0xbcf17f08	-0.029479519
61	0xbdc74230	-0.09729421
62	0xbd2fd77c	-0.04293011
63	0x3d6edccc	0.058316037
64	0xbddefb82	-0.10887815
65	0x3d2e4740	0.042548418
66	0x3c84d60d	0.016215349
67	0x3dd29cf4	0.10283843
68	0x3dc7582e	0.09733616
69	0xbd873e87	-0.06603723
70	0xbc1d7685	-0.009610777
71	0x3ca09c84	0.019605882
72	0x3d99986a	0.07499774
73	0x3db408a8	0.087907135
74	0xbd18fc3d	-0.03734993
75	0xbc6017b0	-0.013677523
76	0xbb877396	-0.004133652
77	0xbdd9b191	-0.10629571
78	0x3da31c6c	0.079644054
79	0xbdee8a5c	-0.11647484
80	0x3b61cc5a	0.0034454078
81	0xbc03fe1a	-0.008056188
82	0x3ddf19a5	0.10893563
83	0x3ddbb1b4	0.107272536
84	0xbcf12208	-0.029435173
85	0x3dc0293c	0.09382865
86	0xbde99a49	-0.11406381
87	0x3dcdeb0e	0.10054599
88	0xbdd11a7c	-0.102101296
89	0xbdc2256e	-0.094797954
90	0xbe033445	-0.12812908
91	0xbc95a490	-0.018266946
92	0x3d17a0c8	0.037018567
93	0x3d10619a	0.03524933
94	0x3aa53580	0.0012604445
95	0xbdbe14a8	-0.092812836
96	0x3db6449b	0.08899804
97	0x3dd837e4	0.10557535
98	0x3db30181	0.08740521
99	0xbd438902	-0.047738083
100	0x3deeecb0	0.11666238
101	0x3da365e4	0.079784185
102	0xbb2378db	-0.0024943862
103	0xbdd8e108	-0.10589796
104	0xbda5372c	-0.08067164
105	0x3c859a98	0.016309068
106	0x3d478cb4	0.04871817
107	0x3de49e72	0.111630335
108	0xbd874482	-0.06604864
109	0xbda01362	-0.07816197
110	0xbdb6752c	-0.089090675
111	0xbcf83397	-0.030298037
112	0x3dd9237d	0.10602472
113	0xbcb01d50	-0.021498352
114	0x3def2c4b	0.1167837
115	0x3d5a7d94	0.053342417
116	0x3d437545	0.04771926
117	0xbb399d40	-0.0028322488
118	0x3d1ef0a8	0.038803726
119	0xbcb792f0	-0.022408932
120	0x3da9414b	0.08264407
121	0x3ddf92a1	0.10916639
122	0x3d446934	0.047951892
123	0x3de095b2	0.10966052
124	0xbd90fd1e	-0.07079528
125	0xbe0205f5	-0.12697585
126	0x3defd996	0.11711423
127	0xbc203955	-0.009779294
128	0xbc01bec0	-0.0079190135
129	0xbcb06030	-0.02153024
130	0x3de744d8	0.11292428
131	0x3d17f4f6	0.037098847
132	0x3d9cd11a	0.076570705
133	0xbde08001	-0.10961915
134	0xbd58c1a6	-0.052919053
135	0x3d371db0	0.044706047
136	0x3b4afd00	0.0030973554
137	0x3daebdd0	0.085322976
138	0x3c7af17f	0.015316366
139	0x3dbb84da	0.09156199
140	0xbcf21e65	-0.029555509
141	0xbd99201c	-0.074768275
142	0xbd9c0eb6	-0.076199934
143	0x3cb80710	0.022464305
144	0x3da838eb	0.08213981
145	0xbd92897c	-0.07155129
146	0x3c5d378e	0.013502015
147	0xbd32daa6	-0.04366555
148	0xbde07258	-0.10959309
149	0xbdb695f2	-0.089153185
150	0xbd087b2e	-0.0333206
151	0xbdfe6fbc	-0.124236554
152	0xbd708a40	-0.058725595
153	0x3ddd3ab2	0.10802211
154	0x3df726a9	0.12067921
155	0x3d12bc72	0.035824247
156	0xbdd42fec	-0.10360703
157	0xbdf92538	-0.12165302
158	0x3d6630dc	0.05619894
159	0x3d4d8b96	0.050181948
160	0x3de3e0e8	0.11126882
161	0x3d238da8	0.039930016
162	0xbd9da6db	-0.07697841
163	0x3deb5782	0.114913
164	0x3bd5c58f	0.006523795
165	0x3db3bf51	0.08776725
166	0xbdaac2f3	-0.08337965
167	0x3d3199a3	0.04335941
168	0xbceda720	-0.029010355
169	0x3d1b7088	0.037949115
170	0xbb857840	-0.004073173
171	0xbdde7c68	-0.10863572
172	0x3d3bd7e0	0.04586017
173	0xbd83fbac	-0.06444487
174	0xbcef15c8	-0.02918519
175	0x3ccadb1a	0.024762679
176	0xbd5ef5a4	-0.05443348
177	0x3d2ad220	0.041704297
178	0xbddbd59e	-0.107341036
179	0x3d3babf4	0.045818284
180	0xbce3e9c3	-0.027821427
181	0xbde723d4	-0.112861305
182	0x3d8d5982	0.06901838
183	0xbd6b5690	-0.0574556
184	0x3d84a620	0.06476998
185	0x3d43b623	0.04778112
186	0x3dbedc94	0.09319416
187	0x3d21f430	0.039539516
188	0x3cff0cf0	0.031134099
189	0xbd8eaf3b	-0.06967016
190	0x3cb0cd0b	0.021582147
191	0x3d0ba410	0.03409201
192	0xbd3fbdc4	-0.046811834
193	0x3def014a	0.11670168
194	0x3b983200	0.0046446323
195	0xbdece6d4	-0.115674645
196	0x3d948322	0.07251574
197	0x3deef6a4	0.11668137
198	0x3dfa6db6	0.12227957
199	0xbdc0a0e8	-0.094056904
200	0x3ddf4544	0.10901883
201	0x3d0079d8	0.0313662
202	0x3c283a00	0.0102677345
203	0x3dc92564	0.09821585
204	0xbd89019e	-0.066897616
205	0xbd41da24	-0.047327176
206	0xbca324c8	-0.019915
207	0xbde9bb3a	-0.11412664
208	0x3d7efdc0	0.062253714
209	0x3d5ca98c	0.05387263
210	0xbdf0a46a	-0.117501095
211	0xbca134e0	-0.019678533
212	0xbdd1254e	-0.102121934
213	0xbd029b38	-0.03188631
214	0x3d768a2c	0.060190365
215	0xbd2648e0	-0.040596843
216	0xbd9fa962	-0.07795979
217	0x3d3dd488	0.046345264
218	0xbdbeff0a	-0.093259886
219	0x3c785090	0.015155926
220	0xbcd3b6d0	-0.025844008
221	0x3d47dd6c	0.04879515
222	0xbd02cae4	-0.031931773
223	0x3dd10a1e	0.10207008
224	0xbb8997c0	-0.004198998
225	0xbd478204	-0.048707977
226	0xbdf665cc	-0.12031135
227	0xbdb21ac4	-0.086965114
228	0x3df58488	0.11988169
229	0xbd1ef8a4	-0.03881134
230	0x3da9b4ca	0.08286436
231	0xbb96a380	-0.0045971274
232	0xbc9745a8	-0.018465832
233	0x3d448a50	0.047983468
234	0x3d7534d8	0.05986485
235	0xbd640728	-0.055670887
236	0xbda5074c	-0.080580324
237	0xbd8fd48a	-0.070229605
238	0x3c1fae20	0.0097461045
239	0xbde4a4ac	-0.11164221
240	0xbdf36964	-0.11885336
241	0xbd789028	-0.060684353
242	0x3d93a010	0.07208264
243	0x3afd7180	0.0019336194
244	0xbb3c7800	-0.002875805
245	0xbd6c4664	-0.057684317
246	0xbd8604ae	-0.06543861
247	0xbda101c6	-0.078616664
248	0xbd9d4ace	-0.076802835
249	0x3c2e23e0	0.01062867
250	0xbd3b6c7c	-0.045757756
251	0x3cc4a3a0	0.024003804
252	0xbd7fd28c	-0.062456653
253	0x3d8da908	0.06917006
254	0xbdb7e6e6	-0.08979587
255	0x3b522d80	0.0032070577

bias f4 [64]
0	0x3d4f1aa4	0.050562516
1	0x3dbc2020	0.09185815
2	0xbd34a98c	-0.044107005
3	0x3d8bb1a2	0.0682099
4	0xbdd62c76	-0.10457699
5	0xbb6d0616	-0.0036166958
6	0x3d0e3888	0.03472188
7	0xbdcad616	-0.09904115
8	0xbd48dbe3	-0.049037825
9	0x3dfa2b2a	0.12215264
10	0x3c26fd0f	0.01019217
11	0xbc45984b	-0.012060235
12	0x3db81f0c	0.08990297
13	0x3dedc0ae	0.11609016
14	0xbdea2545	-0.1143289
15	0x3db00a7e	0.08595751
16	0xbd9c940b	-0.076454245
17	0xbd3c75ec	-0.046010897
18	0xbd955752	-0.07292046
19	0xbd0dc9d7	-0.034616318
20	0x3de8f318	0.113744915
21	0xbd6e483a	-0.05817435
22	0x3d467670	0.048452795
23	0x3c8d02f8	0.01721333
24	0xbcc53970	-0.02407524
25	0xbc96f264	-0.018426128
26	0x3901b9a4	0.00012371555
27	0xbd960763	-0.07325628
28	0xbca8fc28	-0.02062805
29	0xbc1be3f0	-0.009514794
30	0x3d361ca0	0.044460893
31	0xbdc9c2d8	-0.098516166
32	0x3da1f8a9	0.07908756
33	0xbde36bc6	-0.111045405
34	0x3daab86e	0.083359584
35	0xbde9e708	-0.11421019
36	0xbdc05896	-0.093918964
37	0xbd87beba	-0.06628175
38	0xbdbbb444	-0.09165242
39	0x3cc9bac0	0.024625182
40	0xbd8f6009	-0.07000739
41	0xbd781da4	-0.060575143
42	0x3ba074c0	0.00489673
43	0x3cad64a0	0.021166146
44	0xbdf84d3c	-0.12124106
45	0xbd3a8d14	-0.0455447
46	0x3de11245	0.10989813
47	0x3c4db594	0.012555499
48	0x3ce35d38	0.027754411
49	0x3d9e3976	0.077258036
50	0x3c79d04c	0.015247416
51	0xbd2d5d88	-0.042325526
52	0x3dbee4e0	0.09320998
53	0xbd2988c4	-0.041390195
54	0x3db503a8	0.08838588
55	0x3d8a5df7	0.067562036
56	0x3bc9865c	0.00615005
57	0xbd7509a4	-0.059823647
58	0x3db83b56	0.089956924
59	0x3d1bbbe8	0.038021
60	0xbd96909c	-0.07351801
61	0x3db362c4	0.087590724
62	0xbc89bd75	-0.016813973
63	0x3d032b82	0.032023914

weight f4 [1, 64]
0	0x3d9574a2	0.072976366
1	0x3de80682	0.11329366
2	0xbcbbcad8	-0.022923872
3	0xbda3fcae	-0.08007179
4	0xbdc67030	-0.09689367
5	0x3dee7a40	0.11644411
6	0xbd67b340	-0.05656743
7	0xbc00a430	-0.007851645
8	0x3cff2ff8	0.031150803
9	0xbdb2a90e	-0.08723651
10	0xbd7669f4	-0.06015964
11	0x39b13c00	0.00033804774
12	0x3db3d3aa	0.08780606
13	0x3d7f901c	0.062393293
14	0xbd63a458	-0.055576652
15	0xbde56a38	-0.112019
16	0x3d7078a0	0.058708787
17	0xbd29b6f0	-0.04143423
18	0x3ca32178	0.01991342
19	0xbdd4a732	-0.103834525
20	0xbd16dfdc	-0.036834583
21	0x3df257aa	0.11833127
22	0xbcf62560	-0.030047119
23	0x3c973d90	0.018461972
24	0x3c895840	0.016765714
25	0xbce06fa0	-0.027396977
26	0x3d8498a2	0.06474425
27	0x3da25d22	0.0792792
28	0xbd33ddfc	-0.043912873
29	0xbdfa1d52	-0.12212624
30	0xbc9f5588	-0.019449964
31	0x3da87526	0.08225469
32	0xbdc4067e	-0.09571551
33	0x3cc5ef28	0.02416189
34	0x3dc0ecd2	0.0942017
35	0xbc9c61f8	-0.019089684
36	0xbdad87d8	-0.08473176
37	0xbb589000	-0.0033044815
38	0x3de4adf2	0.1116599
39	0x3d24191c	0.04006301
40	0xbc5ae1d0	-0.013359502
41	0x3d4485b8	0.047979087
42	0x3c2ef460	0.010678381
43	0x3de8b970	0.113634944
44	0x3d952840	0.07283068
45	0x3b31b240	0.0027114302
46	0xbd4f60f8	-0.050629586
47	0x3dded130	0.10879743
48	0xbd8b4826	-0.068008706
49	0xbcf179c0	-0.029477
50	0xbcb47778	-0.022029623
51	0xbd17d7b4	-0.037070945
52	0xbd24ea38	-0.04026243
53	0x3dcae912	0.09907736
54	0xbc830e00	-0.015997887
55	0x3daa55fc	0.083171815
56	0x3c254f20	0.010089666
57	0xbdbe70a0	-0.09298825
58	0xbd067a0c	-0.032831237
59	0x3d22b5e4	0.039724246
60	0xbbec1840	-0.0072050393
61	0x3deba482	0.11505987
62	0x3c819408	0.015817657
63	0xbd8e101a	-0.06936665

weight f4 [4, 64]
0	0x3d84221c	0.06451818
1	0xbdcbdf24	-0.0995467
2	0xbab592a2	-0.0013852904
3	0xbd23e8c4	-0.040016904
4	0xbdc612fa	-0.09671588
5	0xbdef3696	-0.11680333
6	0xbd50a26b	-0.050936144
7	0x3dc0589c	0.09391901
8	0x3ca64619	0.020297097
9	0xbd86c050	-0.065796494
10	0xbd6e3e50	-0.058164895
11	0xbca29e43	-0.019850856
12	0xbdcccce0	-0.10000014
13	0xbd1b2f7b	-0.037887078
14	0xbd26a427	-0.04068389
15	0xbc91e448	-0.017809048
16	0x3daa0d54	0.083033234
17	0x3d1a0878	0.037605733
18	0x3dbb31da	0.09140368
19	0xbdce5bb8	-0.10076088
20	0xbca9a628	-0.020709112
21	0x3d84cf1d	0.06484816
22	0xbd9ba326	-0.075994775
23	0x3c6a4a30	0.014299914
24	0xbd896804	-0.067092925
25	0x3cd9aaf6	0.026570778
26	0x3c8f73c7	0.017511262
27	0x3ce79ccb	0.028273007
28	0xbda74676	-0.08167736
29	0x3aafa900	0.0013401806
30	0x3db2fc5a	0.087395385
31	0x3db55646	0.08854346
32	0x3dba2d9c	0.090907305
33	0x3c117b80	0.008879542
34	0x3debb1fa	0.11508556
35	0xbd96199b	-0.073291026
36	0x3dff4088	0.1246348
37	0xbdffc5d8	-0.124889076
38	0x3d07dc4c	0.033169076
39	0xbd97dc1b	-0.07415029
40	0xbd53f6c6	-0.051749013
41	0x3dc60408	0.09668738
42	0x3d7e55c8	0.062093526
43	0xbd8e6170	-0.069521785
44	0x3df99930	0.12187421
45	0xbd126794	-0.03574331
46	0x3d85add8	0.06527299
47	0xbdbd7d17	-0.092523746
48	0x3da144ea	0.078744724
49	0xbc105322	-0.008808883
50	0xbd2ea7a5	-0.042640347
51	0xbda56a14	-0.080768734
52	0x3da4812a	0.080324486
53	0xbd753e58	-0.05987391
54	0x3cb9c550	0.022677094
55	0xbda481d7	-0.080325775
56	0xbceb5e94	-0.028731622
57	0xbde0de06	-0.109798476
58	0x3d9001bc	0.07031581
59	0x3dc8fcdf	0.09813856
60	0xbda16362	-0.07880284
61	0x3d80feac	0.06298575
62	0x3de6e944	0.11274961
63	0xbc94b901	-0.018154623
64	0x3c532ac0	0.01288861
65	0xbda72972	-0.08162202
66	0xbda4ef0d	-0.08053408
67	0x3de0b8ce	0.10972749
68	0x3d9fbf0e	0.07800113
69	0xbcb9eccb	-0.02269592
70	0xbdaba712	-0.083814755
71	0x3db5f322	0.088842645
72	0x3deae933	0.114702605
73	0xbddaed3e	-0.106897816
74	0x3db87204	0.09006122
75	0x3de9a72f	0.11408841
76	0x3c16c270	0.009201631
77	0xbdc5958c	-0.096476644
78	0xbd478d93	-0.048719
79	0xbdd7e9d2	-0.105426446
80	0x3d809d1c	0.06279966
81	0x3db6b068	0.089203656
82	0x3d1e7b68	0.038691908
83	0x3af26a23	0.0018494766
84	0x3d1e93a8	0.038715035
85	0x3d09715d	0.033555377
86	0xb8ebb800	-0.00011239946
87	0xbd84267e	-0.06452654
88	0xbdd068e8	-0.10176259
89	0xbdcd27ad	-0.10017333
90	0x3cd213e0	0.025644243
91	0x3d6a1800	0.057151794
92	0xbdb55b64	-0.08855322
93	0x3caae458	0.020860836
94	0xbda30ebf	-0.07961797
95	0xbca2cd18	-0.019873187
96	0xbd8d08c0	-0.068864346
97	0xbd1908d8	-0.03736195
98	0xbd80ef3e	-0.06295632
99	0xbc534399	-0.0128945345
100	0x3d40b748	0.04704979
101	0xbdd2345a	-0.102638915
102	0xbd6bf3e0	-0.057605624
103	0xbcede8ea	-0.029041726
104	0xbd16c5ac	-0.03680961
105	0xbc72eb00	-0.014826536
106	0xbdae3a78	-0.08507246
107	0x3d4aa2ba	0.049471594
108	0xbdb0da98	-0.086354434
109	0x3dbef204	0.093235046
110	0xbde56f19	-0.11202831
111	0xbb15fdd1	-0.0022886882
112	0x3d21cc2c	0.039501354
113	0x3d074030	0.0330202
114	0xbcb07ca7	-0.021543814
115	0xbcbe9530	-0.023264498
116	0xbd611599	-0.054952238
117	0x3ce6fbd8	0.02819626
118	0xbdccd628	-0.100017846
119	0xbdd4e09f	-0.103944056
120	0xbddd4552	-0.108042374
121	0xbd2bb050	-0.04191619
122	0xbc0c182c	-0.008550685
123	0x3cdfb659	0.02730863
124	0xb9331400	-0.00017078221
125	0xbd622aa0	-0.05521643
126	0x3d8ebb38	0.06969303
127	0x3d246a84	0.040140644
128	0x3da3aec6	0.0799232
129	0xbd215490	-0.039387286
130	0x3dd3d804	0.10343936
131	0xbd0d7f6c	-0.034545347
132	0x3beedce0	0.007289514
133	0x3d108ec4	0.035292402
134	0xbd9b93cc	-0.075965494
135	0x3d81b5a0	0.0633347
136	0xbdde4858	-0.10853642
137	0xbdbdb822	-0.09263636
138	0x3b980e00	0.004640341
139	0xba024b00	-0.00049702823
140	0xbd5e9cfc	-0.05434893
141	0x3d000dc4	0.031263128
142	0xbdafc892	-0.085831776
143	0xbdb57722	-0.088606134
144	0xbd384a78	-0.044992894
145	0x3d495360	0.04915178
146	0xbcd85360	-0.026406944
147	0x3d0245bc	0.031804785
148	0xbce57488	-0.028009668
149	0xbd451e84	-0.048124805
150	0x3d84a5e0	0.06476951
151	0x3d8d6926	0.06904821
152	0xbd8eca96	-0.06972234
153	0xbdc28166	-0.09497337
154	0x3dff456c	0.12464413
155	0x3d255778	0.04036662
156	0x3c0aa860	0.008462995
157	0xbdfa8d30	-0.12233961
158	0x3ddb1698	0.10697669
159	0xbcffb860	-0.031215847
160	0xbdd4bcc2	-0.10387565
161	0xbdeb099e	-0.11476444
162	0xbcec6800	-0.028858185
163	0x3cf9a610	0.030474693
164	0x3dc2242e	0.09479557
165	0xbd22c800	-0.039741516
166	0xbdcdc20c	-0.10046777
167	0x3d4693f4	0.048480943
168	0xbdb2b2a6	-0.08725481
169	0x3cd9edb0	0.026602596
170	0xbd91ab6e	-0.07112776
171	0xbd97cc06	-0.07411961
172	0xbd29f698	-0.041494936
173	0xbd83445c	-0.06409523
174	0x3ac42580	0.0014964789
175	0x3d9f7594	0.07786098
176	0xbddf323a	-0.10898252
177	0x3d626600	0.055273056
178	0x3cf3a588	0.029742017
179	0x3cbda088	0.023147836
180	0xbd11eb90	-0.03562504
181	0xbc4ec8a0	-0.012621075
182	0x3d7fc1d8	0.062440723
183	0xbd1a6b68	-0.037700087
184	0xbd5b85d8	-0.05359444
185	0x3da73dec	0.081661075
186	0x3c4b5d00	0.01241231
187	0x3cc0ad20	0.023520052
188	0x3d077af4	0.03307624
189	0xbcaebff0	-0.021331757
190	0x3bdd1780	0.006747186
191	0xbd480428	-0.04883209
192	0xbb203f80	-0.0024451911
193	0xbccde258	-0.025132343
194	0x3db6411e	0.08899139
195	0x3c62fa00	0.01385355
196	0xbca96928	-0.020680025
197	0x3dcf5b10	0.10124791
198	0xbdbdea18	-0.092731655
199	0xbce972c0	-0.0284971
200	0x3d208804	0.039192215
201	0xbdc1c5a8	-0.09461528
202	0xbdfc7688	-0.123272955
203	0x3dfa46fe	0.12220572
204	0xbd5f3fec	-0.05450432
205	0x3c138340	0.00900346
206	0xbcef3b50	-0.029203087
207	0x3df9940e	0.12186442
208	0x3c30e3b0	0.010796472
209	0x3d6480d8	0.055786937
210	0x3d7732bc	0.06035112
211	0x3dcbd426	0.099525735
212	0xbdc5f034	-0.09664956
213	0x3dfaef9e	0.122527346
214	0x3db436aa	0.08799489
215	0xbd8bdffa	-0.068298295
216	0xbdd525b0	-0.10407579
217	0xbb51c580	-0.0032008588
218	0xbdb3f4d4	-0.08786932
219	0x3c949258	0.018136188
220	0x3cc96878	0.024585947
221	0x3d6b2b94	0.057414606
222	0x3dbd4c90	0.09243119
223	0xbc90d0f8	-0.017677769
224	0x3cf4e3f0	0.029893845
225	0xbd054dd4	-0.032544926
226	0x3dc07b56	0.093985245
227	0x3dc97430	0.09836614
228	0xbd5a8e30	-0.053358257
229	0xbd655ba8	-0.055995613
230	0x3d966592	0.07343592
231	0x3bea4520	0.0071493536
232	0x3dff833a	0.12476201
233	0x3da2e0dc	0.07953045
234	0x3dd4f040	0.103973866
235	0xbda5dcb2	-0.08098735
236	0xbdcb93b4	-0.099402815
237	0xbdba8eea	-0.0910929
238	0xbdbf245e	-0.09333108
239	0xbd806184	-0.062686
240	0xbd908ce4	-0.07058123
241	0x3d5c0928	0.05371967
242	0xbcf174f8	-0.02947472
243	0xbd946b84	-0.072470695
244	0x3df3ae48	0.11898476
245	0x3dfdee86	0.1239901
246	0xbded3750	-0.11582816
247	0x3bfed760	0.0077771395
248	0x3d272c10	0.040813506
249	0xbdf49b28	-0.11943656
250	0xbd8a194a	-0.06743105
251	0x3d091744	0.033469453
252	0xbda15c32	-0.07878913
253	0x3d98c9a8	0.07460338
254	0x3c373010	0.011180893
255	0x3d98d428	0.074623406

bias f4 [4]
0	0x3dcbc09f	0.09948849
1	0xbdb0044f	-0.08594572
2	0x3d81c646	0.06336646
3	0xbd312364	-0.04324664
